A2/dqn_trainer_metadrive_easy.pt (torch, 150982 bytes, 6 tensors)

action_value.0.weight f4 [100, 259]
-0.025123365 -0.024843046 -0.0289221 0.016637776 -0.055738434 -0.0068193637 0.034648076 -0.044842552
-0.023478435 0.020948889 -0.020426774 0.06206374 0.032748483 -0.0060782717 -0.026534814 0.009450249
0.025941096 -0.055141065 -0.025733083 -0.011276986 -0.014278937 0.039455906 -0.057808083 0.020527663
-0.024822509 0.042664133 0.05958609 0.027169116 -0.0404528 -0.0053456444 -0.023282483 0.02122208
0.0085971905 0.035814244 -0.032505102 0.019032344 -0.044303592 -0.036447037 0.010025607 -0.050456587
0.049511608 0.052249614 -0.047172476 0.05405416 -0.060301717 -0.0027612448 0.03866731 0.041651685
-0.04269194 0.00424588 -0.022859681 0.021697782 -0.060593825 -0.019756302 -0.053125773 0.035696466
-0.014008464 0.020516999 0.044141706 0.028947122 -0.038382176 -0.004755471 0.0076568536 0.034290362
-0.0052342266 0.04475638 0.038069118 0.027822033 0.008530686 0.03484993 -0.012942484 0.05668992
-0.021821164 0.04863568 -0.02276373 -0.0065463707 -0.06000169 0.04385439 0.01526309 0.008620593
0.058196086 0.057780262 0.035193566 -0.0056805834 -0.025124695 0.04366413 0.042811234 -0.029165767
0.040442687 -0.06022738 -0.05885325 0.024756253 -0.0030919905 0.04288986 0.034182947 -9.0562535e-06
0.022191696 -0.047155388 -0.024164278 0.02541364 -0.03877034 -0.045847792 0.045456003 0.00088959944
-0.05280437 -0.048593532 0.007673491 0.010240721 -0.004772965 -0.053894065 0.06303685 0.059118796
0.0010860265 0.021897428 -0.029659115 -0.037353966 0.031005278 0.010743612 0.035779346 0.031129993
-0.043119147 0.021605372 -0.029197063 -0.028367035 0.054973397 0.062246744 -0.01583926 -0.016128518
0.027633414 0.00010301919 0.06271475 0.03465629 -0.007059492 0.037525233 -0.015308073 0.0596095
-0.0036883056 -0.053423382 0.053115215 -0.039643656 0.030034482 -0.040545907 -0.043513644 -0.0094724875
-0.02120227 0.028503478 0.0484556 -0.042563383 0.016848974 -0.053760156 -0.005998824 -0.032039538
-0.026275523 0.0052249245 0.05253606 0.023715377 0.011026921 -0.043774378 -0.035335194 -0.060924057
0.014142672 0.034280103 0.03872413 0.05159342 -0.01562811 0.00950283 0.04640509 0.060611475
0.005214911 -0.008564403 0.060139123 0.052606467 0.017850712 -0.04801494 0.026899181 0.03609633
-0.008904075 -0.05754557 0.034591455 0.039706904 0.016504556 -0.03787379 0.060335975 -0.057367187
-0.020037893 0.036929805 0.017890573 -0.04845706 0.0073885955 0.02921629 0.04605514 0.047537286
-0.057928026 0.056849826 0.030003913 0.016238185 0.026003316 -0.05352033 0.04132897 -0.015584879
-0.023838092 -0.023345307 0.033214036 -0.027209658 -0.055324268 -0.009872692 0.035130274 -0.0057729594
-0.041154336 0.062423605 -0.011573428 0.019699812 0.045104977 0.028192483 0.041257013 -0.018855449
0.022399448 -0.020603389 -0.06029875 -0.041111093 -0.035212185 0.019349203 0.026031658 -0.006825976
0.017915122 0.015197152 -0.015122205 0.05524702 0.06155656 -0.051333286 0.04378332 -0.027420428
0.036089722 -0.01571944 0.0020806603 0.039774027 0.024390377 -0.005384654 0.05067111 0.031081393
0.007945102 0.04755703 -0.0021421798 0.05690087 -0.03764811 -0.046812348 -0.0027534775 0.039259147
-0.05102941 0.021165326 -0.0030601812 -0.013983168 -0.057121765 0.009643068 -0.04719231 0.020324497
00000000: 84cf cdbc a583 cbbc 0aee ecbc f24b 883c
00000010: fc4d 64bd f874 dfbb 24eb 0d3d d3ac 37bd
00000020: d955 c0bc 019d ab3c 0d56 a7bc 8c36 7e3d
00000030: 4623 063d 3d2c c7bb 8a5f d9bc 38d5 1a3c
00000040: 6c82 d43c 99db 61bd 30ce d2bc 1cc3 38bc
00000050: 34f2 69bc 849c 213d 2bc8 6cbd a129 a83c
00000060: 9358 cbbc 96c0 2e3d 8b10 743d c491 de3c
00000070: d6b1 25bd 842a afbb e8ba bebc edd9 ad3c
00000080: 3bdb 0c3c f5b1 123d 1224 05bd b8e9 9b3c
00000090: af77 35bd 7d49 15bd 7242 243c 91ab 4ebd
000000a0: afcc 4a3d b103 563d ed37 41bd e567 5d3d
000000b0: effe 76bd 00f6 34bb 9d61 1e3d f59a 2a3d
000000c0: bedd 2ebd 0621 8b3b 3a44 bbbc 8cbf b13c
000000d0: 3b31 78bd f8d7 a1bc 699a 59bd 7536 123d
000000e0: c283 65bc 4413 a83c efcd 343d 8422 ed3c
000000f0: a136 1dbd c8d3 9bbb 58e6 fa3b 0d74 0c3d
00000100: e083 abbb 7752 373d 5dee 1b3d 08eb e33c
00000110: 4ac4 0b3c cdbe 0e3d b60c 54bc b133 683d
00000120: 4cc2 b2bc 3536 473d 007b babc f082 d6bb
00000130: 55c4 75bd a9a0 333d 0a12 7a3c 633d 0d3c
00000140: 055f 6e3d ffaa 6c3d 2127 103d 3024 babb
00000150: 4ed2 cdbc 29d9 323d d55a 2f3d 0ced eebc
00000160: 3ba7 253d fcb0 76bd 1b10 71bd a0cd ca3c
00000170: fea2 4abb 47ad 2f3d 6b03 0c3d 50f0 17b7
00000180: 5ccb b53c 0226 41bd 2af4 c5bc 4430 d03c
00000190: a6cd 1ebd e5ca 3bbd 1330 3a3d 0234 693a
000001a0: 6549 58bd 030a 47bd e871 fb3b b2c8 273c
000001b0: 8866 9cbb 06c0 5cbd 7719 813d 8d26 723d
000001c0: 0159 8e3a 3c62 b33c acf7 f2bc 7900 19bd
000001d0: c8fe fd3c fa05 303c 5d8d 123d 5404 ff3c
000001e0: b49d 30bd c0fd b03c ae2e efbc fc61 e8bc
000001f0: c92b 613d 71f6 7e3d 56c1 81bc f41f 84bc
00000200: 785f e23c 020c d838 9770 803d c1f3 0d3d
00000210: 5053 e7bb 0fb4 193d b6ce 7abc 1729 743d
00000220: 80b7 71bb 7ad2 5abd 578f 593d 6361 22bd
00000230: e00a f63c 7713 26bd 5d3b 32bd 7e32 1bbc
00000240: 62b0 adbc 2080 e93c 6179 463d f156 2ebd
00000250: dc06 8a3c 9c33 5cbd c891 c4bb e43b 03bd
00000260: c43f d7bc d835 ab3b 0d30 573d c046 c23c
00000270: 42aa 343c c34c 33bd a3bb 10bd 818b 79bd
00000280: aab6 673c 4b69 0c3d 319d 1e3d 9f53 533d
00000290: 8606 80bc c2b1 1b3c 4313 3e3d bd43 783d
000002a0: d8e1 aa3b b651 0cbc 7154 763d e179 573d
000002b0: a83b 923c 50ab 44bd ac5b dc3c bfd9 133d
000002c0: 66e2 11bc e7b4 6bbd c5af 0d3d b5a3 223d
000002d0: 9034 873c 8c21 1bbd db22 773d dbf9 6abd
000002e0: 8226 a4bc b543 173d 408f 923c e97a 46bd
000002f0: 081c f23b 0057 ef3c 51a4 3c3d 75b6 423d
00000300: f045 6dbd 5ddb 683d c4ca f53c f105 853c
00000310: e804 d53c 2238 5bbd 9148 293d b857 7fbc
00000320: 1a48 c3bc a83e bfbc 710b 083d cae6 debc
00000330: b39b 62bd 12c1 21bc c3e4 0f3d 182b bdbb
00000340: 7391 28bd e5af 7f3d 7a9e 3dbc 8061 a13c
00000350: ffbf 383d ecf3 e63c 1dfd 283d be76 9abc
00000360: 0c7f b73c 70c8 a8bc d2fb 76bd 1b64 28bd
00000370: a73a 10bd 3882 9e3c 5840 d53c 70ac dfbb
00000380: bcc2 923c 7afd 783c 20c3 77bc b34a 623d
00000390: bb22 7c3d da42 52bd 2356 333d cea0 e0bc
000003a0: d1d2 133d 0ec6 80bc b05b 083b 17ea 223d
000003b0: 54ce c73c c071 b0bb 838c 4f3d 689e fe3c
000003c0: 2c2c 023c 29cb 423d d063 0cbb e310 693d
000003d0: e834 1abd 4ebe 3fbd b073 34bb 33ce 203d
000003e0: 3704 51bd e862 ad3c 528d 48bb a819 65bc
000003f0: 83f8 69bd f5fd 1d3c b94c 41bd 8f7f a63c

action_value.0.bias f4 [100]
0.016122008 0.010860621 -0.010320208 0.05586924 -0.0008862856 -0.020210031 -0.022106767 -0.020647453
-0.013041433 0.006653966 0.043004785 -0.017652828 -0.06189198 -0.03534355 -0.003269688 0.046109
-0.041565694 0.009283483 0.029492825 0.061259955 -0.055829294 -0.061978232 -0.016418107 0.018066173
-0.027224673 0.021596907 -0.029016014 0.023018949 -0.060179643 0.030084161 -0.002443228 0.001672417
0.04185974 0.02067734 0.029774616 0.02286187 -0.020761926 -0.047969684 -0.06042926 -0.058130775
-0.048262194 0.007941038 -0.02345128 0.0096366 -0.027127333 -0.004454562 0.029915191 0.008993663
-0.05249282 0.04516886 -0.0014309585 0.055379353 -0.0024427436 0.039696507 -0.008208767 0.028122714
-0.06129425 -0.018804844 -0.02317774 -0.034400403 0.036144707 0.0389999 -0.015324836 -0.024912491
0.01918298 -0.037554838 -0.034917407 0.02733446 -0.053899538 0.04440626 0.016798997 0.03937152
0.05697161 -0.022507062 0.055904888 -0.020462815 -0.018824289 -0.03858646 0.012018079 -0.019100357
0.034750305 -0.01738955 0.044458214 0.01023959 -0.039648052 0.048110895 0.05071412 -0.054341722
-0.026921708 0.030319007 0.038257025 -0.02293355 0.028499477 0.015171118 -0.034089934 -0.052936874
0.0063974634 0.02274096 0.06074071 0.03693907
00000000: 4d12 843c bff0 313c 1716 29bc 25d7 643d
00000010: 9f55 68ba 828f a5bc 4019 b5bc d924 a9bc
00000020: bcab 55bc 8309 da3b c925 303d aa9c 90bc
00000030: 7282 7dbd 66c4 10bd 4348 56bb cadc 3c3d
00000040: ca40 2abd c019 183c f09a f13c b8eb 7a3d
00000050: 42ad 64bd e3dc 7dbd 447f 86bc 83ff 933c
00000060: 4706 dfbc ffeb b03c feb2 edbc 3c92 bc3c
00000070: ee7e 76bd 0f73 f63c 901e 20bb 0135 db3a
00000080: 1e75 2b3d 8663 a93c e5e9 f33c d148 bb3c
00000090: ea14 aabc dc7b 44bd ac84 77bd 891a 6ebd
000000a0: 94ae 45bd 211b 023c e61c c0bc d4e2 1d3c
000000b0: 243a debc 93f7 91bb b410 f53c 285a 133c
000000c0: b602 57bd fc02 393d 008f bbba 76d5 623d
000000d0: 7016 20bb ce98 223d 107e 06bc 9b61 e63c
000000e0: ae0f 7bbd 9e0c 9abc 3edf bdbc 70e7 0cbd
000000f0: 790c 143d 5cbe 1f3d 0515 7bbc 4815 ccbc
00000100: a025 9d3c 1ad3 19bd 8e05 0fbd 84ec df3c
00000110: c3c5 5cbd 57e3 353d 0d9e 893c 0844 213d
00000120: 105b 693d bb60 b8bc 86fc 643d a2a1 a7bc
00000130: 6535 9abc d60c 1ebd 7ae7 443c 5a78 9cbc
00000140: 5656 0e3d 8874 8ebc d119 363d f4c3 273c
00000150: ff65 22bd ee0f 453d 9cb9 4f3d 6d95 5ebd
00000160: ea8a dcbc 915f f83c 66b3 1c3d 24df bbbc
00000170: bc77 e93c 4890 783c e3a1 0bbd 56d4 58bd
00000180: d0a1 d13b 404b ba3c 40cb 783d 6c4d 173d

action_value.2.weight f4 [100, 100]
0.005219184 0.043443777 -0.03332542 -0.084465936 0.04913669 -0.03634938 -0.09751967 0.036165603
0.018910803 -0.09033541 -0.0018837005 0.0020006895 0.033300348 0.09627827 0.0139923915 -0.06974997
-0.028434202 -0.048939705 0.09606639 0.09115993 -0.0044458285 -0.056329813 0.00026099384 -0.0028726608
-0.014694236 0.06670477 -0.049871217 -0.02588971 0.0915282 -0.08874335 -0.003973387 0.024592303
-0.043207265 0.053825088 -0.025651634 0.080111794 0.01427649 -0.04137839 -0.0008293167 -0.051501215
-0.026382074 -0.0054458156 -0.049374677 0.07024688 0.09002084 -0.08202773 0.060910262 -0.09601428
0.055668153 0.09911754 0.05778595 0.0047372803 -0.015812136 0.031064518 0.032923676 0.046712108
-0.09963807 0.0052194744 -0.08416964 0.0021875054 -0.073983826 -0.030960545 0.048311807 0.065707184
-0.095569745 -0.030484654 -0.088604204 0.08594983 0.064336576 -0.081699885 0.059974022 0.0558685
0.07634678 -0.062905945 0.077376045 -0.071980216 -0.00455904 -0.07116531 0.097560905 -0.011180602
0.078647874 -0.09932424 -0.027350463 0.053210326 0.005714461 0.013323143 -0.08336355 0.070114546
-0.05620444 -0.051093925 -0.066854015 0.05539257 -0.06418717 -0.09716495 0.022278085 -0.08565887
0.054925494 -0.021881595 -0.045591917 0.060939915 0.08218873 0.021311603 -0.0066415668 0.08833634
0.036077224 -0.09827101 0.06562958 -0.082614884 0.03104306 0.05884946 -0.058782972 -0.05294125
-0.025065377 -0.06587894 -0.03592111 0.07332767 0.039887674 -0.013120331 0.024942718 -0.0653985
0.050350465 0.08991165 -0.053178597 0.039930634 -0.02463615 -0.05167811 0.095553674 0.093239255
-0.081608854 0.014556691 0.08672357 -0.0516884 -0.070277214 0.047516935 -0.01528462 0.00054011494
0.048920758 -0.022564925 0.055181377 0.040462784 -0.026858233 -0.090256654 0.013676748 0.0028267056
-0.0416695 -0.030426383 0.08904264 0.07402033 -0.010904714 0.05179379 -0.029570416 0.029419921
-0.055765223 0.09803832 0.04641605 -0.08636039 0.09454394 -0.03370662 -0.025567934 -0.049925756
0.040938266 0.07586584 0.030003764 -0.05688976 0.05404561 0.07328976 -0.05931243 -0.07724772
0.07071208 -0.05419867 0.0317237 0.003363371 -0.04074148 0.039871313 -0.09419999 0.01550214
-0.06455283 0.08374075 -0.027602397 -0.04410261 0.01661668 -0.053797867 -0.027015552 0.02016364
-0.027120747 0.09466862 0.06741402 0.06741177 -0.04470694 -0.011241876 0.010636941 -0.03134559
-0.0778531 -0.01348573 0.008192301 -0.0654594 -0.03910246 0.080313094 0.062213667 -0.08296192
0.014080159 0.010264741 -0.087264776 0.037926458 0.055116564 0.026587104 0.019408397 0.035564005
-0.0035917982 0.04801616 0.0702785 0.09555256 0.038628094 0.02066113 -0.09103178 -0.07672749
-0.003495738 0.046640646 0.019589804 0.09702862 -0.08329233 -0.09315415 0.04572644 -0.09234742
-0.039370343 -0.08731739 -0.025258869 0.042383082 -0.05470402 -0.07391432 0.01595656 -0.08941071
-0.04263079 0.038163975 -0.071296915 0.013084011 0.03731266 -0.072499596 -0.06293373 -0.07509674
-0.014523782 -0.0032254406 0.057912283 -0.08760623 0.09524583 0.09497821 0.03483797 0.097331844
-0.06377795 0.037697736 0.049143963 0.100279 0.06556407 -0.07964368 -0.09909842 0.03011914
00000000: b005 ab3b 1af2 313d 3c80 08bd 7afc acbd
00000010: 8e43 493d 16e3 14bd 65b8 c7bd 6222 143d
00000020: d4ea 9a3c c501 b9bd 80e6 f6ba 001e 033b
00000030: f265 083d 8b2d c53d 5840 653c 13d9 8ebd
00000040: d8ee e8bc 0075 48bd 75be c43d 0fb2 ba3d
00000050: 50ae 91bb 17ba 66bd 00d6 8839 4043 3cbb
00000060: 18c0 70bc 839c 883d c345 4cbd a816 d4bc
00000070: 2373 bb3d 13bf b5bd 3033 82bb cc75 c93c
00000080: 1afa 30bd b277 5c3d 6023 d2bc a711 a43d
00000090: f0e7 693c 637c 29bd 8066 59ba f0f2 52bd
000000a0: 381f d8bc d072 b2bb 1a3d 4abd 99dd 8f3d
000000b0: d95c b83d 28fe a7bd 0a7d 793d 23a3 c4bd
000000c0: 4a04 643d 23fe ca3d f6b0 6c3d 303b 9b3b
000000d0: 7488 81bc 047b fe3c fada 063d 3255 3f3d
000000e0: 0b0f ccbd 2008 ab3b 2261 acbd 405c 0f3b
000000f0: d584 97bd f8a0 fdbc 9ae2 453d 7d91 863d
00000100: 12ba c3bd f4ba f9bc 1f76 b5bd 7706 b03d
00000110: e5c2 833d 4552 a7bd 52a7 753d 5ed6 643d
00000120: b35b 9c3d d5d4 80bd 5577 9e3d 5d6a 93bd
00000130: 0064 95bb 1ebf 91bd 03ce c73d d82e 37bc
00000140: 2312 a13d 826a cbbd 140e e0bc 12f3 593d
00000150: 6040 bb3b 5049 5a3c 82ba aabd 3798 8f3d
00000160: a036 66bd dd47 51bd c2ea 88bd 52e3 623d
00000170: 9074 83bd 6bfe c6bd 8880 b63c eb6d afbd
00000180: 8ef9 603d 0841 b3bc 97be 3abd 229c 793d
00000190: 9152 a83d ac95 ae3c 80a1 d9bb afe9 b43d
000001a0: b6c5 133d 5042 c9bd cd68 863d fe31 a9bd
000001b0: 044e fe3c 220c 713d 6ac6 70bd edd8 58bd
000001c0: e855 cdbc 8aeb 86bd 0422 13bd d12c 963d
000001d0: 4261 233d a8f6 56bc ac54 cc3c a6ef 85bd
000001e0: 4a3c 4e3d 9923 b83d cdd1 59bd 4e8e 233d
000001f0: c0d1 c9bc 6dac 53bd a5b1 c33d 39f4 be3d
00000200: 8b22 a7bd 307f 6e3c 219c b13d 37b7 53bd
00000210: 80ed 8fbd 1ea1 423d 586c 7abc 8096 0d3a
00000220: 2261 483d 14da b8bc de05 623d 4ebc 253d
00000230: cc05 dcbc 7bd8 b8bd 7014 603c 4040 393b
00000240: a3ad 2abd c040 f9bc fd5b b63d f997 973d
00000250: b0a9 32bc ba25 543d a83d f2bc 0c02 f13c
00000260: 136a 64bd 51c8 c83d c21e 3e3d b7dd b0bd
00000270: 41a0 c13d f40f 0abd d873 d1bc f37e 4cbd
00000280: e2ae 273d 8d5f 9b3d 74ca f53c 3d05 69bd
00000290: ee5e 5d3d f118 963d 97f1 72bd 0d34 9ebd
000002a0: 7fd1 903d 6dff 5dbd b6f0 013d 006c 5c3b
000002b0: 8ae0 26bd 1a50 233d edeb c0bd b0fc 7d3c
000002c0: 4634 84bd 4580 ab3d 6c1e e2bc f0a4 34bd
000002d0: b41f 883c 275b 5cbd b84f ddbc 382e a53c
000002e0: 542c debc 9fe1 c13d 5d10 8a3d 2f0f 8a3d
000002f0: a01e 37bd d82f 38bc 9046 2e3c 3c64 00bd
00000300: 7271 9fbd 40f3 5cbc 0039 063c 940f 86bd
00000310: e729 20bd 317b a43d c2d3 7e3d f0e7 a9bd
00000320: 78b0 663c 722d 283c e0b7 b2bd c658 1b3d
00000330: e8c1 613d 33cd d93c 5cfe 9e3c 90ab 113d
00000340: 6064 6bbb 98ac 443d 2dee 8f3d 10b1 c33d
00000350: 7e38 1e3d 8841 a93c df6e babd 4d23 9dbd
00000360: c018 65bb 430a 3f3d cc7a a03c f1b6 c63d
00000370: 2b95 aabd 9ac7 bebd a64b 3b3d a520 bdbd
00000380: cc42 21bd 76d3 b2bd b0eb cebc e299 2d3d
00000390: 5311 60bd 6460 97bd 55b7 823c f61c b7bd
000003a0: a09d 2ebd d451 1c3d 1e04 92bd 525e 563c
000003b0: 29d5 183d ab7a 94bd 66e3 80bd 52cc 99bd
000003c0: 28f5 6dbc ea61 53bb 6e35 6d3d e56a b3bd
000003d0: 3f10 c33d f083 c23d 42b2 0e3d eb55 c73d
000003e0: 049e 82bd f168 1a3d 2e4b 493d 145f cd3d
000003f0: 7546 863d 3a1c a3bd 1df4 cabd 6abc f63c

action_value.2.bias f4 [100]
-0.045156147 -0.046886254 0.09624092 0.034366958 0.04278157 -0.05078534 0.09003528 0.07920906
-0.041401017 0.06817576 -0.044804115 0.09299582 -0.014645963 0.010566342 0.07143077 -0.02723413
-0.097680055 -0.04217676 -0.06386602 -0.025420062 0.10188164 -0.033940695 -0.006757634 -0.09186486
0.06847868 -0.021867909 0.09105156 -0.032196205 0.086967036 0.059163004 0.015784822 -0.04673701
-0.07475475 -0.100773424 -0.018534385 0.013440847 0.08116097 -0.06502792 0.00609076 0.044940896
0.048086245 0.08051178 -0.06679205 0.0032083616 -0.0663663 0.046486527 -0.075961985 0.007229939
0.0751984 -0.07466116 -0.06721793 0.072779946 0.06604098 -0.08108103 -0.044913907 0.033044275
0.008125408 0.082706764 0.061882626 -0.031996626 0.0896408 0.025609963 -0.011551522 0.0969468
-0.012488155 -0.0145261185 -0.030360552 -0.090855986 -0.04313135 -0.033516146 -0.02313855 -0.052750852
0.06750121 0.0895455 0.035545193 0.0103529915 0.013211444 -0.07218945 -0.0029806334 0.03433832
-0.06889832 0.023463354 -0.03629168 0.05568799 -0.009068328 -0.05260042 -0.095545016 0.07275753
0.07796215 0.02991528 0.08862027 0.05494345 0.07492346 -0.009869307 -0.072150394 -0.0320873
-0.022028409 0.083606385 0.01828757 -0.03507731
00000000: a7f5 38bd cd0b 40bd f619 c53d 5ec4 0c3d
00000010: ba3b 2f3d 4a04 50bd 6b64 b83d 5c38 a23d
00000020: 1d94 29bd bc9f 8b3d 8584 37bd 9874 be3d
00000030: 9ff5 6fbc 731e 2d3c 4c4a 923d 1c1a dfbc
00000040: 7b0c c8bd 8ac1 2cbd 30cc 82bd bc3d d0bc
00000050: 52a7 d03d 6605 0bbd 256f ddbb a523 bcbd
00000060: 8d3e 8c3d 5424 b3bc 3e79 ba3d 2be0 03bd
00000070: c61b b23d e854 723d 2c4f 813c 4f6f 3fbd
00000080: 0519 99bd 4c62 cebd 6cd5 97bc 0037 5c3c
00000090: b937 a63d 5c2d 85bd 0095 c73b f213 383d
000000a0: 15f6 443d 5ce3 a43d 45ca 88bd 6043 523b
000000b0: 0eeb 87bd a868 3e3d f591 9bbd 20e9 ec3b
000000c0: 9e01 9a3d f3e7 98bd 8ea9 89bd a70d 953d
000000d0: 7e40 873d d00d a6bd a5f7 37bd 6f59 073d
000000e0: 6e20 053c 2a62 a93d a378 7d3d e50e 03bd
000000f0: 9995 b73d fccb d13c 9842 3dbc 0b8c c63d
00000100: 1e9b 4cbc f5fe 6dbc b1b6 f8bc b412 babd
00000110: 80aa 30bd 3a48 09bd 0e8d bdbc 4711 58bd
00000120: 133e 8a3d a263 b73d d697 113d 989f 293c
00000130: d074 583c 10d8 93bd bb56 43bb 57a6 0c3d
00000140: 901a 8dbd 3836 c03c 96a6 14bd 1719 643d
00000150: 5393 14bc 8a73 57bd 1bad c3bd e601 953d
00000160: 9faa 9f3d e410 f53c 8b7e b53d 620c 613d
00000170: 7971 993d e0b2 21bc 96c3 93bd f96d 03bd
00000180: ec74 b4bc d339 ab3d d0cf 953c 3aad 0fbd

action_value.4.weight f4 [9, 100]
-0.085046165 -0.09771293 0.055734467 -0.07458626 -0.008577369 0.043907978 0.09194945 0.07923212
0.08206725 -0.066522 -0.011122421 0.054045573 -0.061376225 0.056257445 0.048413053 0.09006549
0.09202231 0.07670882 0.03973698 -0.011345108 0.07733379 -0.09208875 0.09719076 0.07694814
0.0968051 -0.05487765 0.02300172 -0.048142046 -0.032619648 -0.057338588 -0.0744109 0.033228345
0.011660323 -0.050825242 -0.012315843 -0.08476038 0.0069467695 0.0432702 0.081166066 -0.01067581
-0.018860664 0.0820186 -0.018693604 0.008546926 0.055166624 -0.087665215 0.06697408 0.06585785
0.045413643 -0.058897626 0.10267512 -0.017402396 -0.046521474 0.090162836 0.0027359875 -0.01577556
0.05395257 -0.08055551 -0.031498544 -0.05946603 -0.051574785 -0.011764385 -0.048642505 0.012466667
0.06606967 -0.0023752078 0.09808011 -0.036798388 0.068950735 -0.096758865 0.023828382 -0.06368915
-0.09511576 -0.040152214 0.042142637 -0.028346397 0.06310881 0.02789741 -0.056202125 0.03540221
0.011053406 0.02314897 0.09447382 -0.040359557 -0.054435086 -0.0004714271 -0.079841994 -6.6526416e-05
0.084271125 0.07479351 0.036516733 -0.0043947473 0.08841163 0.027583383 -0.026467398 0.08968548
-0.06618736 0.09567227 0.040432446 -0.036320366 0.019570433 0.08129168 0.06151716 -0.015705153
-0.02397807 0.037985258 -0.014572259 -0.038090836 0.04549246 0.0656045 0.018331606 0.013454722
-0.060487937 -0.041997354 0.057674788 0.08244487 0.024267197 -0.04491652 0.023958012 -0.086609386
0.07592674 0.091950595 0.099325724 0.024286032 0.053730585 0.09154942 0.08829933 0.03852628
0.0028903715 -0.05482169 -0.036883198 0.011490509 -0.0078064203 -0.049011696 0.081563905 0.052901037
-0.03994832 -0.016955448 -0.052283216 0.013895534 -0.07545434 0.03250794 -0.0679497 -0.026137136
-0.017071463 -0.024420675 0.08638966 -0.035872474 -0.090374306 0.0496537 0.09234804 -0.06401099
0.106951036 0.012700103 -0.081179105 0.09703613 0.037866864 0.10324885 -0.007909238 0.021748489
0.004120215 0.029928096 -0.021418832 0.030227805 0.07433055 0.008080151 -0.035550233 -0.08631084
0.06417122 0.0723407 0.07302859 -0.09983007 -0.06402714 -0.0071824216 0.002979301 -0.020121977
0.014204755 0.04580254 0.02905368 0.019718532 0.08613137 -0.07732219 0.05991181 -0.07967522
0.04429914 0.0011698385 -0.07138999 -0.066130035 0.03247025 0.08847097 -0.05015997 -0.022683226
-0.033484966 -0.08985742 -0.06770058 -0.092183836 0.061901905 0.09776175 0.03741928 0.016588038
0.04840543 0.042037733 -0.09102366 0.0071412474 0.073701315 -0.052783575 0.09129501 -0.052073788
0.019957136 0.057535347 -0.021821544 0.01237105 -0.024261631 0.073737755 -0.067284495 0.018724525
0.05848833 -0.04723129 0.07918794 -0.027642991 0.024940398 0.028385766 -0.012962372 0.009793654
-0.07314716 -0.040490117 0.09269122 -0.009883909 -0.047015306 -0.05461645 -0.004461527 0.085175596
0.059252016 0.058785956 -0.009758241 0.017434873 -0.030308146 0.031571973 0.02255094 -0.016627572
0.03494326 0.039473366 0.036899813 0.06050039 -0.082492724 -0.06830874 0.045860924 -0.07143942
0.06722932 0.044040285 0.0821285 -0.057296313 -0.09758463 -0.0035059825 -0.008223856 -0.014907587
00000000: af2c aebd b71d c8bd d349 643d aec0 98bd
00000010: 1888 0cbc dad8 333d fe4f bc3d 7344 a23d
00000020: e012 a83d b03c 88bd d13a 36bc e45e 5d3d
00000030: a365 7bbd 356e 663d c44c 463d 4174 b83d
00000040: 3176 bc3d 8419 9d3d 3ec3 223d d5e0 39bc
00000050: 2e61 9e3d 0799 bcbd f30b c73d fd96 9d3d
00000060: c141 c63d 63c7 60bd 1a6e bc3c 9830 45bd
00000070: 2e9c 05bd dedb 6abd be64 98bd 721a 083d
00000080: f00a 3f3c 212e 50bd 64c8 49bc da96 adbd
00000090: baa1 e33b 183c 313d 653a a63d 98e9 2ebc
000000a0: ae81 9abc 5ef9 a73d 5423 99bc 6808 0c3c
000000b0: 66f6 613d d289 b3bd b529 893d 7be0 863d
000000c0: a803 3a3d a33e 71bd 5547 d23d 788f 8ebc
000000d0: 4d8d 3ebd 4ba7 b83d 414e 333b bf3b 81bc
000000e0: 5ffd 5c3d 4afa a4bd 9e04 01bd a792 73bd
000000f0: 1540 53bd 68bf 40bc 5d3d 47bd fe40 4c3c
00000100: 894f 873d 60a9 1bbb 3ade c83d e8b9 16bd
00000110: 0b36 8d3d 8329 c6bd bd33 c33c 756f 82bd
00000120: 0dcc c2bd a676 24bd c29d 2c3d b436 e8bc
00000130: 313f 813d 1c89 e43c 3334 66bd e801 113d
00000140: 5819 353c e9a2 bd3c 7d7b c13d 1050 25bd
00000150: 53f7 5ebd e029 f7b9 3384 a3bd 1984 8bb8
00000160: 5796 ac3d 572d 993d 9292 153d d001 90bb
00000170: 2811 b53d 8cf6 e13c 28d2 d8bc 05ad b73d
00000180: 3d8d 87bd d3ef c33d 7e9c 253d aac4 14bd
00000190: 2c52 a03c 417c a63d 6bf9 7b3d 18a8 80bc
000001a0: a86d c4bc 6e96 1b3d 7cc0 6ebc 2305 1cbd
000001b0: 4d56 3a3d a75b 863d 2a2c 963c 3271 5c3c
000001c0: 33c2 77bd 6b05 2cbd 663c 6c3d dbd8 a83d
000001d0: 00cc c63c 63fa 37bd 9843 c43c 4360 b1bd
000001e0: 7b7f 9b3d 9850 bc3d 496b cb3d 80f3 c63c
000001f0: 9a14 5c3d 437e bb3d 47d6 b43d bccd 1d3d
00000200: 636c 3d3b b58c 60bd d612 17bd b042 3c3c
00000210: 00cd ffbb 7dc0 48bd fa0a a73d c2ae 583d
00000220: d9a0 23bd 27e6 8abc ed26 56bd 18aa 633c
00000230: ce87 9abd 0c27 053d 3629 8bbd 8c1d d6bc
00000240: 74d9 8bbc de0d c8bc 10ed b03d 04ef 12bd
00000250: 2a16 b9bd ae61 4b3d f820 bd3d 3218 83bd
00000260: 2509 db3d 1814 503c 3b41 a6bd e1ba c63d
00000270: 491a 1b3d 2274 d33d c095 01bc e329 b23c
00000280: de02 873b c42b f53c 8c76 afbc 4da0 f73c
00000290: 9e3a 983d 9c62 043c 1f9d 11bd bdc3 b0bd
000002a0: 336c 833d 5c27 943d 0390 953d b573 ccbd
000002b0: a920 83bd 855a ebbb 6040 433b d8d6 a4bc
000002c0: 10bb 683c 729b 3b3d fc01 ee3c c288 a13c
000002d0: a565 b03d 195b 9ebd 1666 753d c32c a3bd
000002e0: 0473 353d 4455 993a ea34 92bd 2f6f 87bd
000002f0: 86ff 043d 4530 b53d 8a74 4dbd 2cd2 b9bc
00000300: 8827 09bd 2b07 b8bd 9aa6 8abd e1ca bcbd
00000310: da8c 7d3d 5037 c83d f544 193d a3e3 873c
00000320: c644 463d c22f 2c3d 9d6a babd 2001 ea3b
00000330: b7f0 963d 9733 58bd e1f8 ba3d 534b 55bd
00000340: 267d a33c 2faa 6b3d 18c3 b2bc f2af 4a3c
00000350: 54c0 c6bc d203 973d 74cc 89bd 2d64 993c
00000360: 7691 6f3d 9975 41bd 492d a23d 8e73 e2bc
00000370: ce4f cc3c 4489 e83c 2160 54bc 9075 203c
00000380: 2ece 95bd f7d8 25bd e5d4 bd3d 1ef0 21bc
00000390: 1f93 40bd 80b5 5fbd 0032 92bb 8b70 ae3d
000003a0: 3eb2 723d 8bc9 703d 07e1 1fbc 94d3 8e3c
000003b0: ca48 f8bc 9d51 013d c0bc b83c 8c36 88bc
000003c0: aa20 0f3d d3ae 213d 4224 173d 42cf 773d
000003d0: f2f1 a8bd 74e5 8bbd aad8 3b3d d54e 92bd
000003e0: 87af 893d 9663 343d fd32 a83d 8aaf 6abd
000003f0: 73da c7bd a0c4 65bb 5abd 06bc f43e 74bc

action_value.4.bias f4 [9]
-0.06782873 -0.06303794 0.08941487 -0.065904394 0.060053036 -0.077613086 0.08886999 0.06998976
-0.058640424
00000000: cae9 8abd 091a 81bd 251f b73d e2f8 86bd
00000010: 2cfa 753d 9cf3 9ebd 7801 b63d cb56 8f3d
00000020: f130 70bd
