A2/dqn_trainer_cartpole.pt (torch, 46026 bytes, 6 tensors)

action_value.0.weight f4 [100, 4]
0	0x3e74433a	0.2385377
1	0xbece1b0a	-0.40255004
2	0x3e66f56e	0.22554561
3	0xbeaefb5c	-0.34176147
4	0x3ee37d71	0.44431642
5	0x3ec2ab6e	0.38021415
6	0x3e9eef48	0.31041932
7	0x3d26b115	0.040696222
8	0x3f245ce5	0.64204246
9	0x3bbb5850	0.005717315
10	0xbeddecce	-0.4334473
11	0xbd07e621	-0.033178452
12	0x3b745b28	0.0037285779
13	0xbeb8dcc3	-0.36105928
14	0x3f843b4c	1.0330596
15	0xbe8888ad	-0.26666775
16	0xbe488fee	-0.19586155
17	0xbe82add5	-0.25523248
18	0x3ea77967	0.3270981
19	0x3e035438	0.12825096
20	0x3f637f3d	0.88866025
21	0x3e824090	0.25439882
22	0xbebb6589	-0.36600903
23	0x3e063b81	0.13108636
24	0xbf13c7e4	-0.57726884
25	0x3ecd6c4a	0.4012168
26	0x3fa57031	1.2924863
27	0xbe1c7dce	-0.15282366
28	0xbe40badc	-0.18821281
29	0x3dfc5c86	0.12322335
30	0x3e7f9a39	0.24961175
31	0x3e9c366d	0.30510274
32	0x3eeaae06	0.45835894
33	0xbee5c5c3	-0.44877443
34	0x3dc5f2aa	0.09665425
35	0xbeba30a4	-0.36365235
36	0xbe86d154	-0.2633158
37	0xbf019e8d	-0.50632554
38	0xbf21efb2	-0.6325637
39	0xbec9b51f	-0.39395997
40	0x3ec60044	0.38672078
41	0xbea93e8a	-0.33055526
42	0xbdb523b7	-0.08844703
43	0x3d013327	0.031542923
44	0xbe1b8634	-0.15187913
45	0x3da074b0	0.078347564
46	0xbeb95034	-0.36194003
47	0xbca3e340	-0.020005822
48	0xbe37f94a	-0.1796619
49	0x3e740210	0.23828912
50	0xbdd08c33	-0.10182991
51	0x3e989709	0.2980273
52	0xbf2f9810	-0.68591404
53	0xbe8e4842	-0.27789503
54	0x3f781106	0.96900976
55	0xbe904fd6	-0.2818591
56	0x3e2e4d6c	0.17021722
57	0x3eb85ab9	0.36006716
58	0xbf717aed	-0.94328195
59	0x3e9b2939	0.30304888
60	0x3ebce8a5	0.36896244
61	0xbeeaa0ce	-0.4582581
62	0x3e3effdd	0.18652292
63	0xbe9b1b15	-0.302941
64	0x3db42f5d	0.08798096
65	0x3f222738	0.63341093
66	0x3eac9836	0.33709878
67	0x3ee5691a	0.4480675
68	0xbe1b8505	-0.15187462
69	0xbef38a16	-0.4756629
70	0x3f803b5b	1.0018114
71	0xbc1df042	-0.009639801
72	0xbde50f3e	-0.11184548
73	0xbdc7624d	-0.09735546
74	0xbf67523b	-0.9035985
75	0x3e537c2f	0.20652841
76	0xbeaa4941	-0.33259013
77	0xbcfd9f6b	-0.030959805
78	0x3e90602a	0.28198367
79	0x3e0b5428	0.13606322
80	0x3f370223	0.71487635
81	0x3e18d122	0.14923528
82	0x3f07e778	0.5308757
83	0x3dac1389	0.084021635
84	0x3f124fca	0.57153
85	0x3f2be588	0.6714711
86	0x3f5ad2cf	0.8547792
87	0x3f003602	0.5008241
88	0x3e482214	0.1954425
89	0xbea7bf02	-0.32762915
90	0xbf641a99	-0.89103085
91	0x3e8d866c	0.27641618
92	0x3cd9aa72	0.026570532
93	0x3d01a842	0.031654604
94	0x3f4c19a4	0.79726624
95	0xbcbf10c6	-0.023323428
96	0x3e885409	0.26626614
97	0x3eb93200	0.3617096
98	0xbf67a7e5	-0.9049056
99	0x3dcf811a	0.10132046
100	0x3e6abe89	0.22924246
101	0xbe15d81f	-0.14633225
102	0xbe6c5d00	-0.23082352
103	0x3e1c09d0	0.15238118
104	0x3d0b61de	0.03402888
105	0x3d820216	0.06348054
106	0xbf9a9c58	-1.2078962
107	0xbe8cd1f5	-0.27503935
108	0x3ee811b7	0.45326015
109	0xbe283d9c	-0.16429752
110	0x3e940dc3	0.2891675
111	0xbe29ece2	-0.1659427
112	0x3d98cc28	0.07460815
113	0x3ea2a48e	0.3176617
114	0x3f5ad465	0.8548034
115	0x3ea1927d	0.31557074
116	0xbef56fa7	-0.47936746
117	0x3ef4e50f	0.47831008
118	0x3e097e4e	0.13427088
119	0xbc1c11a6	-0.009525692
120	0xbdc63cd9	-0.096795745
121	0xbe8437cf	-0.2582383
122	0xbf8683df	-1.0508994
123	0xbe74f611	-0.23921992
124	0xbd1a8323	-0.037722718
125	0xbe23cc34	-0.15995866
126	0xbe49e5e3	-0.19716601
127	0xbe697f69	-0.2280251
128	0xbec2f447	-0.38076994
129	0x3d56cf34	0.052443698
130	0x3f1d13b3	0.61358184
131	0x3e3919c7	0.1807624
132	0xbd76674f	-0.060157117
133	0x3e9d6bd6	0.30746335
134	0xbc08401f	-0.008316069
135	0x3e21611b	0.15759699
136	0xbe73b50a	-0.2379953
137	0xbc80b0d4	-0.015709318
138	0xbe84bbd0	-0.2592454
139	0xbe1a6342	-0.15076926
140	0xbd44e8ac	-0.048073456
141	0x3d47f4f3	0.048817586
142	0x3e6981ad	0.22803374
143	0xbe3a5384	-0.18195921
144	0xbf0386d9	-0.51377636
145	0xbeefb3d8	-0.46816897
146	0xbf2f9a09	-0.68594414
147	0xbea74b6a	-0.32674724
148	0xbd697844	-0.05699946
149	0x3e65468b	0.22390191
150	0x3da600af	0.08105599
151	0xbed9b7fa	-0.42523175
152	0x3eb4a7a6	0.35284156
153	0xbe7b17b0	-0.24520755
154	0x3e68e8ad	0.22745009
155	0xbebc113d	-0.36731902
156	0x3ecfb8ea	0.40570766
157	0xbed41a32	-0.41426235
158	0xbf003857	-0.5008597
159	0x3da9d63a	0.082928136
160	0x3ec2f289	0.38075665
161	0xbef1ae46	-0.47203273
162	0xbdc713f1	-0.097206004
163	0x3b805188	0.0039159693
164	0x3ecccdce	0.40000767
165	0xbe859310	-0.26088762
166	0xbf864020	-1.0488319
167	0xbe988068	-0.29785466
168	0x3ed8cede	0.42345327
169	0xbd9e5032	-0.0773014
170	0xbf85ecd6	-1.0462902
171	0xbe82c97a	-0.2554434
172	0xbe78ab00	-0.24283981
173	0xbc624b4b	-0.013811897
174	0xbec1598f	-0.3776364
175	0x3dacb7bd	0.08433483
176	0x3eec2aac	0.46126306
177	0xbe85cb7b	-0.26131806
178	0xbf59fca8	-0.8515115
179	0xbe56799a	-0.20944825
180	0x3ced3340	0.028955102
181	0x3ecd5701	0.4010544
182	0x3f86fe39	1.0546333
183	0x3eb5a7dd	0.35479632
184	0xbe8a13e6	-0.26968306
185	0x3e67dd9d	0.22643133
186	0x3e3fd18f	0.18732284
187	0x3eb51850	0.3537011
188	0x3efed56d	0.49772206
189	0xbc180d9d	-0.009280589
190	0x3d8f6e46	0.07003455
191	0xbe8b0d37	-0.2715852
192	0x3e8745a5	0.26420322
193	0xbe526e55	-0.20549901
194	0x3ed72b5d	0.4202527
195	0xbe96de66	-0.29466552
196	0xbe6fa09f	-0.23401116
197	0x3e59916f	0.21246885
198	0xbee514dd	-0.4474248
199	0x3eac66dd	0.33672228
200	0x3f4e26c1	0.80527884
201	0x3dc4d4f8	0.09610933
202	0x3f529378	0.8225627
203	0x3da32b19	0.079672046
204	0xbf4884c4	-0.78327584
205	0xbeff96e3	-0.49919805
206	0x3ef87012	0.48523003
207	0xbe91d7f3	-0.2848507
208	0xbe7e6fc9	-0.2484733
209	0xbe2064af	-0.15663408
210	0xbfb42a5a	-1.4075425
211	0xbe218239	-0.15772332
212	0xbdfe0aa6	-0.12404375
213	0x3e99ae5a	0.30015832
214	0xbe37a92e	-0.1793563
215	0x3df36f33	0.11886444
216	0x3e8f63eb	0.2800592
217	0xbe37e090	-0.17956758
218	0xbf3eba7a	-0.7450329
219	0x3e44542a	0.19172731
220	0x3e47f5e3	0.19527392
221	0xbea933e7	-0.3304741
222	0xbf142e6f	-0.5788335
223	0xbecc2247	-0.39869902
224	0xbeb7c92c	-0.3589567
225	0x3e63ddde	0.22252604
226	0x3f3ce9dd	0.7379435
227	0xbd232a3d	-0.039835203
228	0xbd6e7ebf	-0.058226343
229	0xbe386f5e	-0.18011233
230	0x3e76ca93	0.24100713
231	0xbea5f22f	-0.32411334
232	0xbf2466b2	-0.642192
233	0xbe9e9ed9	-0.30980566
234	0x3f1900ef	0.5976705
235	0xbe14d66e	-0.14534923
236	0x3c68b59e	0.014203457
237	0x3e9f567c	0.3112067
238	0x3ef87a8c	0.48530996
239	0xbdb47020	-0.08810449
240	0x3f2b1cd1	0.66840845
241	0x3e937fe3	0.28808507
242	0xbe0b1202	-0.13581088
243	0xbc70c2a0	-0.01469484
244	0xbf21c8b2	-0.6319686
245	0x3e862366	0.26198882
246	0x3f24391c	0.6414964
247	0x3e4f1cb0	0.20225787
248	0xbe6d0af7	-0.23148714
249	0xbeb6e892	-0.35724312
250	0x3e486d93	0.19573049
251	0xbe5c203e	-0.21496674
252	0xbbd47727	-0.0064839306
253	0x3e3a159f	0.1817231
254	0xbf43f1a0	-0.76540565
255	0x3e999199	0.29993895

action_value.0.bias f4 [100]
0	0x3efcf663	0.49406728
1	0x3e7680a3	0.24072509
2	0x3eb6a183	0.356701
3	0x3e4679c3	0.19382386
4	0xbeadca16	-0.33943242
5	0x3a9ab8e8	0.0011804374
6	0x3ea0a4b8	0.3137567
7	0x3f2daa58	0.6783805
8	0x3f015ccf	0.5053224
9	0xbe7bbf79	-0.2458476
10	0x3f12ac1c	0.5729387
11	0xbee6e670	-0.45097685
12	0x3eed6d0a	0.46372253
13	0x3e68a3e4	0.2271877
14	0xbeee42cb	-0.46535334
15	0x3ee1410c	0.4399494
16	0xbc3005ec	-0.010743599
17	0xbeffdf1b	-0.49974903
18	0x3f22b5ae	0.6355847
19	0xbedd09dc	-0.43171585
20	0x3b8022b5	0.0039103874
21	0xbe048839	-0.1294259
22	0xbece1a77	-0.40254566
23	0x3edcec4e	0.43149036
24	0xbef08c37	-0.46981975
25	0x3f14b2b4	0.5808518
26	0xbeb9700d	-0.362183
27	0x3ec24cb7	0.37949154
28	0xbe9cefae	-0.3065161
29	0x3f4b27d4	0.7935765
30	0xbe9a9b55	-0.30196634
31	0x3f1d7dc2	0.61520016
32	0xbf20fbd5	-0.62884265
33	0x3e2f3e3b	0.17113583
34	0x3f338bbd	0.701351
35	0xbf175475	-0.59113246
36	0xbca0b14a	-0.019615788
37	0xbf30138a	-0.68779814
38	0xbf05fc17	-0.52337784
39	0xbe6671d4	-0.2250436
40	0x3ea09d0e	0.31369823
41	0xbec51226	-0.3849041
42	0xbefb7719	-0.49114302
43	0x3f378583	0.716881
44	0xbe87180d	-0.26385537
45	0xbee40b41	-0.44539836
46	0x3f347355	0.7048848
47	0x3f256620	0.64608955
48	0x3f158d59	0.58418804
49	0x3f077e34	0.52926946
50	0xb8ae0080	-8.29706e-05
51	0xbd531c49	-0.051540647
52	0xbc754951	-0.014971093
53	0x3effea61	0.49983504
54	0x3f11af70	0.5690832
55	0x3f2ebb75	0.68254787
56	0x3ea6166a	0.32438976
57	0x3f086de1	0.5329266
58	0xbd4080dc	-0.04699789
59	0x3e4b9887	0.19882403
60	0xbee48c63	-0.44638357
61	0xbe962df6	-0.2933194
62	0xbc2b2211	-0.010445134
63	0x3ea070e8	0.3133614
64	0x3e91fa25	0.28511158
65	0xbee7f17a	-0.4530142
66	0xbee83dc5	-0.45359626
67	0x3e1e944b	0.15486257
68	0xbc16d8c1	-0.009206952
69	0x3ee8a781	0.45440295
70	0xbec6b6a1	-0.3881121
71	0xbeba1c30	-0.3634963
72	0xbdcdd8ab	-0.10051092
73	0x3e667917	0.2250713
74	0x3c3ebf69	0.011642315
75	0x3ecd612d	0.40113202
76	0xbe979476	-0.29605454
77	0xbe1392f5	-0.14411528
78	0x3f1cbd73	0.61226577
79	0x3f2718e0	0.6527233
80	0x3f400095	0.7500089
81	0x3ea5008f	0.3222699
82	0xbeb406d9	-0.35161474
83	0xbecfdb0d	-0.4059681
84	0x3c6cd7b9	0.014455729
85	0x3f3c745c	0.7361505
86	0x3f386345	0.72026473
87	0x3e519a06	0.20468912
88	0xbe08ba3f	-0.13352297
89	0xbe80162e	-0.25016922
90	0xbeca1f00	-0.39476776
91	0x3f11c55b	0.56941766
92	0xbefd915e	-0.4952497
93	0xbcb8a6b7	-0.022540433
94	0xbd8d1f14	-0.06890693
95	0xbd6c2401	-0.057651524
96	0x3f301bb8	0.68792295
97	0x3e8944e4	0.26810372
98	0xbe92d7fb	-0.28680405
99	0x3bf3f1b7	0.007444586

action_value.2.weight f4 [100, 100]
0	0x3e9f7c18	0.31149364
1	0x3da85b21	0.082205065
2	0x3e3b0396	0.18263087
3	0x3dd70a87	0.10500055
4	0x3a234657	0.0006228438
5	0xbee27f41	-0.44237712
6	0x3e214d35	0.15752108
7	0x3e89113e	0.26770967
8	0x3e8c1d1d	0.27365962
9	0xbe80aa38	-0.25129867
10	0x3e69a5ae	0.22817108
11	0xbdb536df	-0.088483565
12	0x3e8e8623	0.27836713
13	0x3e60a04a	0.21936145
14	0x3d877112	0.06613363
15	0x3e90fcd8	0.28317904
16	0xbd9420e7	-0.07232838
17	0xbdad9a27	-0.08476668
18	0x3e559388	0.2085706
19	0xbdfd5ab2	-0.123708144
20	0xbd91afba	-0.07113595
21	0xbe168dc4	-0.14702517
22	0xbde0238f	-0.10944282
23	0x3e83742c	0.2567457
24	0xbe37aef3	-0.17937832
25	0x3e5b2613	0.21401243
26	0xbe944b2c	-0.28963602
27	0x3e654893	0.22390966
28	0xbea5a136	-0.32349557
29	0x3ec5a1ee	0.38600105
30	0xbebc0c6e	-0.36728233
31	0x3e77f078	0.24212825
32	0xbedf8e85	-0.4366342
33	0x3d2b77d0	0.04186231
34	0x3eaae806	0.33380145
35	0xbc67ccb3	-0.014147925
36	0xbea665a3	-0.32499418
37	0xbe4ad8bb	-0.19809239
38	0xbe13c44e	-0.14430353
39	0xbde7e587	-0.11323076
40	0x3e429009	0.19000258
41	0xbee887ea	-0.45416194
42	0xbe8c5a15	-0.27412477
43	0x3e9465a1	0.28983787
44	0xbec20394	-0.37893355
45	0xbecbe0f9	-0.39820078
46	0x3e61cd12	0.22050884
47	0x3e991aab	0.2990316
48	0x3e32e7de	0.17471263
49	0x3dec8eb6	0.115506575
50	0xbdf192d9	-0.11795587
51	0xbe6aaf98	-0.22918546
52	0xbeed4120	-0.4633875
53	0x3e6b16bb	0.2295789
54	0x3e820d41	0.25400737
55	0x3e687526	0.22700939
56	0x3e883e35	0.2660996
57	0x3e5ff2f2	0.2187002
58	0xbe26a64f	-0.16274379
59	0x3e2d1774	0.16903478
60	0xbe157428	-0.14595091
61	0xbee1b90c	-0.44086492
62	0xbd6cb285	-0.057787437
63	0x3df22206	0.11822896
64	0x3e83290e	0.2561726
65	0xbe194ca0	-0.14970636
66	0xbf5b5618	-0.85678244
67	0x3e5a1141	0.21295644
68	0xbdfc106c	-0.1230782
69	0x3e99012b	0.29883704
70	0xbf01f5cf	-0.507657
71	0xbf01778b	-0.50573033
72	0xbf384b7d	-0.71990186
73	0x3dc0c94f	0.094133966
74	0xbe91a13e	-0.2844333
75	0x3e1c5e1c	0.15270275
76	0xbd343b95	-0.044002134
77	0xbf0cc9f4	-0.54995656
78	0x3e550243	0.20801644
79	0x3e93445a	0.28763086
80	0x3e5a7121	0.21332218
81	0x3e14fe73	0.1455019
82	0xbea2513d	-0.31702605
83	0xbed8b7f2	-0.4232784
84	0xbe7d9123	-0.24762397
85	0x3e86eead	0.2635397
86	0x3e9eacd2	0.30991226
87	0xbbbc476c	-0.005745819
88	0xbe832bd3	-0.25619373
89	0xbc409165	-0.011753415
90	0xbd99690e	-0.07490741
91	0x3e385100	0.17999649
92	0x3db4d882	0.08830358
93	0xbeb85bf4	-0.36007655
94	0xbed55c81	-0.41672137
95	0xbe515564	-0.2044273
96	0x3e900695	0.28130022
97	0x3e2ce8c5	0.1688567
98	0xbdeb8023	-0.114990495
99	0xbe6916bc	-0.22762579
100	0xbd047da2	-0.032346375
101	0xbdc2e46f	-0.095162265
102	0xbc93eb58	-0.018056557
103	0x3d9fa789	0.07795627
104	0x3d99563b	0.0748715
105	0xbcaed660	-0.021342456
106	0xbd7edb8f	-0.062221106
107	0xbdabb1ff	-0.083835594
108	0x3c67eb21	0.01415518
109	0xb9445e1c	-0.00018727075
110	0xbcdc0437	-0.026857479
111	0x3d5b258e	0.05350261
112	0xbdc29070	-0.095002055
113	0xbddc3892	-0.107529774
114	0xbdc1f423	-0.094703935
115	0xbd47faad	-0.048823047
116	0x3a885fbb	0.0010404506
117	0x3d9cec8d	0.07662306
118	0x3da8e5db	0.082469665
119	0xbd937f3c	-0.072020024
120	0x3c801e62	0.015639488
121	0xbda61075	-0.08108608
122	0x3917171a	0.00014409088
123	0xbdb2d8dd	-0.0873277
124	0xbdbbf68f	-0.09177887
125	0x3c110fb8	0.008853845
126	0xbc9b1918	-0.018932864
127	0x3c3ba750	0.011453465
128	0xbc3ffd35	-0.011718084
129	0xbde5ad45	-0.11214689
130	0x3dcb8e91	0.09939302
131	0x3d880fab	0.066436134
132	0xbc1fb0d9	-0.009746754
133	0x3da6663d	0.08124969
134	0xbd5e17ac	-0.054221794
135	0xbcf1c64c	-0.0295135
136	0xbd9d91e2	-0.076938406
137	0x3d9c9111	0.07644857
138	0x3d8ac289	0.06775386
139	0x3daef924	0.085436136
140	0x3da45b08	0.08025175
141	0x3ce24957	0.027622862
142	0x3d4afbf2	0.04955668
143	0x3d2a15b1	0.041524593
144	0xbd0adf30	-0.033904254
145	0xbd773057	-0.060348835
146	0xbdbbda44	-0.0917249
147	0xbd9f71d5	-0.077853836
148	0xbd6c0983	-0.05762626
149	0xbc6c3030	-0.014415786
150	0xbd2b9023	-0.041885506
151	0x3d5a291a	0.053261854
152	0x3dab8c57	0.08376377
153	0x3d64dff8	0.055877656
154	0xbafd45fc	-0.0019323225
155	0xbddea857	-0.10871952
156	0xbd569680	-0.05238962
157	0xbdd0827d	-0.10181139
158	0xbbe4ed78	-0.0069863163
159	0xbd076e86	-0.033064388
160	0xbd314840	-0.043281794
161	0x3ce9044f	0.028444437
162	0x3d8d0b3f	0.06886911
163	0x3d9ba1a6	0.07599191
164	0x3d6742de	0.056460254
165	0x3d898de1	0.067165144
166	0x3dbce605	0.0922356
167	0xbdd8bed9	-0.10583276
168	0x3d5bb8c4	0.053643003
169	0xbd074824	-0.033027783
170	0x3d7308e0	0.059334636
171	0xbc3e31c0	-0.011608541
172	0xbd9281c0	-0.07153654
173	0x3d4d1f7b	0.05007885
174	0x3d9b7400	0.075904846
175	0x3d4f62de	0.050631396
176	0xbc71fc30	-0.014769599
177	0xbd0058e1	-0.03133476
178	0x3b842a1d	0.0040333406
179	0xbd7d421c	-0.061830625
180	0xbd48c010	-0.04901129
181	0xbda52a26	-0.0806468
182	0x3c52f583	0.012875917
183	0x3dc21ed1	0.09478534
184	0xbde5bbd5	-0.11217467
185	0x3d4023b9	0.046909068
186	0x3d277d1a	0.04089079
187	0xbd1d54a3	-0.038410794
188	0x3d87dbfc	0.066337556
189	0xbdb384ff	-0.08765601
190	0xbda4b3a4	-0.08042076
191	0xbd3de041	-0.046356443
192	0xbc6f53b2	-0.014607357
193	0x3ba37aef	0.00498902
194	0xbd8ac334	-0.06775513
195	0x3b3db0c0	0.0028944463
196	0xbd242dcd	-0.04008274
197	0xbd717352	-0.05894787
198	0xbd8e7b79	-0.06957144
199	0xbdafb752	-0.085798874
200	0x3eb4427d	0.35206977
201	0xbd04ac68	-0.032390982
202	0x3ea7240a	0.32644683
203	0x3dc99a32	0.098438635
204	0xbde6d6c8	-0.11271435
205	0xbf075d5e	-0.5287684
206	0x3e340098	0.17578351
207	0x3e4cd32b	0.20002429
208	0x3e4edecc	0.20202178
209	0xbea0c380	-0.31399155
210	0x3e44c9c1	0.19217588
211	0xbc453a58	-0.012037836
212	0x3e80056a	0.2500413
213	0x3e37e7b9	0.17959489
214	0x3c30b3a2	0.010785015
215	0x3eaa815b	0.33301815
216	0x3cbedb29	0.023297863
217	0xbe93a5be	-0.2883739
218	0x3e2ab0d4	0.16669017
219	0xbe8f2e08	-0.27964807
220	0xbe91aa25	-0.28450122
221	0xbe25e28f	-0.16199706
222	0xbe870ca6	-0.26376837
223	0x3e012bc9	0.12614359
224	0xbdabaa08	-0.0838204
225	0x3e181016	0.14849886
226	0xbe99740e	-0.29971355
227	0x3e2bd4c0	0.16780376
228	0xbf23ffa2	-0.6406194
229	0x3eab9837	0.33514568
230	0xbedea22d	-0.43483105
231	0x3e9c1acf	0.30489203
232	0xbef62848	-0.48077607
233	0x3dc270ef	0.094941966
234	0x3eca861e	0.39555448
235	0xbd8a6917	-0.067583255
236	0xbedf18f2	-0.4357372
237	0xbea55d17	-0.32297584
238	0xbe82755a	-0.25480157
239	0xbded4cb8	-0.115868986
240	0x3e3e5dc8	0.18590462
241	0xbe5994bf	-0.21248148
242	0xbe4752f1	-0.19465233
243	0x3ea44922	0.32087046
244	0xbed0e6d4	-0.40801108
245	0xbf62cba7	-0.88592
246	0x3e6598c1	0.22421552
247	0x3e8f9615	0.2804419
248	0x3e613f21	0.21996738
249	0x3e8931dd	0.26795855
250	0xbe6cd172	-0.23126772
251	0xbe1666f8	-0.14687717
252	0xbea636b4	-0.3246361
253	0x3e84cdad	0.25938168
254	0x3dde2d02	0.10848428
255	0x3e8fcbea	0.28085262

action_value.2.bias f4 [100]
0	0x3e8ac933	0.27106628
1	0xbdd8811d	-0.105715014
2	0x3ea72f9f	0.3265352
3	0xbc291780	-0.010320544
4	0xbc99fc78	-0.018797144
5	0xbd3d005c	-0.04614292
6	0x3e421131	0.1895187
7	0x3e4372da	0.19086781
8	0x3e6c6a67	0.23087464
9	0x3e379f8c	0.17931956
10	0xbc97d494	-0.018533982
11	0xbd242827	-0.040077355
12	0xbe47ec51	-0.19523741
13	0x3cc0f854	0.023555912
14	0xbc452ec2	-0.012035074
15	0x3cf0b522	0.029383246
16	0x3ba7a4ae	0.005116067
17	0xbe0f5b19	-0.13999595
18	0xbdf1dd53	-0.11809792
19	0x3ced60c2	0.028976802
20	0x3e715ae4	0.23569828
21	0x3e86a48f	0.26297423
22	0xbca99c11	-0.020704301
23	0x3e2c3e16	0.16820559
24	0x3e7de1f4	0.24793226
25	0xbcd6fc4c	-0.026243351
26	0x3e65c918	0.22439992
27	0x3e74d978	0.23911083
28	0x3dc7b612	0.09751524
29	0xbe6093f9	-0.21931447
30	0x3e8dfc3f	0.2773151
31	0x3e9dc858	0.30816913
32	0xbd95f346	-0.07321791
33	0x3caf2d74	0.021383978
34	0xbd6a3acb	-0.057184976
35	0xbe2b0195	-0.16699822
36	0xbda0677f	-0.0783224
37	0x3e302fe0	0.17205763
38	0x3e974a8f	0.2954907
39	0x3e8595c5	0.26090828
40	0xbe5ab430	-0.21357799
41	0xbdd4cdd6	-0.103908226
42	0x3d0a34d6	0.033741795
43	0xbd34efe4	-0.04417409
44	0x3d692ecb	0.05692939
45	0xbe45fdc9	-0.19335093
46	0x3e53ab5e	0.2067084
47	0x3eaf1887	0.341984
48	0xbdad4321	-0.084600694
49	0xbdf3e537	-0.11908954
50	0xbdcdc0d2	-0.10046543
51	0x3e522ab7	0.20524107
52	0x3cebc751	0.028781565
53	0x3e722392	0.23646381
54	0xbd2c1733	-0.042014312
55	0xbda71f96	-0.081603214
56	0x3e5c6c12	0.215256
57	0xbdc3cd0a	-0.095605925
58	0x3e35019a	0.17676392
59	0x3eb06bf0	0.3445735
60	0xbdb26555	-0.08710734
61	0x3e5f3c1b	0.21800272
62	0x3e20a73c	0.15688795
63	0xbdec4d17	-0.11538141
64	0x3eadf040	0.3397236
65	0x3ea685e9	0.3252404
66	0x3ea90c21	0.33017066
67	0x3e91a299	0.28444365
68	0x3e65ec8e	0.2245352
69	0x3e6742df	0.22584103
70	0x3eb7f5d6	0.35929745
71	0x3de81ef0	0.11334026
72	0x3e3b9469	0.18318333
73	0x3d66f088	0.056381732
74	0x3e6489ba	0.22318164
75	0xbd259ba5	-0.040431637
76	0x3ea14337	0.31496593
77	0x3e954c6c	0.29159868
78	0xbda56be3	-0.080772184
79	0xbd158a7a	-0.036509015
80	0x3e951a7c	0.29121768
81	0xbe2b4035	-0.16723712
82	0x3e71b198	0.23602903
83	0xbe569d2c	-0.20958394
84	0xbd0ba38d	-0.03409152
85	0x3e61e701	0.22060777
86	0xbe00fd7a	-0.12596694
87	0x3e87cc51	0.2652307
88	0xbd8d2a33	-0.068928145
89	0xbccf7552	-0.025324497
90	0xbe1d8368	-0.15382159
91	0x3ccc385a	0.024929214
92	0xbe4eec47	-0.2020732
93	0x3e5d8ff9	0.21636952
94	0x3b7f8106	0.0038986816
95	0x3eab895c	0.33503234
96	0xbd5dece1	-0.054180983
97	0x3dd2f5c0	0.10300779
98	0x3eb2cb4f	0.34920737
99	0x3e4e15c5	0.20125492

action_value.4.weight f4 [2, 100]
0	0x3ec3dc89	0.38254192
1	0x3c64e86d	0.01397143
2	0x3f0c1cea	0.5473162
3	0x3dadff7f	0.08495998
4	0xbd84c90f	-0.064836614
5	0x3d643a6a	0.05571977
6	0x3e972ce3	0.29526433
7	0x3eddf254	0.43348944
8	0x3edf224a	0.43580848
9	0x3eb5cf47	0.35509703
10	0xbe9e62ca	-0.30934745
11	0x3dc4f99e	0.09617923
12	0xbf0aebdb	-0.54266137
13	0xbb2ad100	-0.0026064515
14	0x3d76ac46	0.060222887
15	0x3b696e03	0.003561855
16	0xbd801e18	-0.0625574
17	0x3d289041	0.041153196
18	0xbd535f79	-0.05160472
19	0x3ce8ee59	0.028433966
20	0x3edb4dc4	0.42832768
21	0xbdc987d8	-0.09840363
22	0xbda48ae5	-0.080343045
23	0x3ee6ad6e	0.4505419
24	0x3ebb5c59	0.36593893
25	0x3c63a200	0.013893604
26	0x3eb44e8b	0.35216174
27	0x3eb479ad	0.3524908
28	0x3ea15255	0.31508127
29	0xbf4dbb46	-0.8036388
30	0x3eab1b3b	0.33419213
31	0x3eb959ec	0.36201417
32	0xbf0cfbb9	-0.550716
33	0xbbe776a3	-0.007063703
34	0xbca899d8	-0.02058117
35	0xbf5b8c1e	-0.85760677
36	0x3c867cb7	0.01641689
37	0x3e9aa669	0.30205086
38	0x3eb13a09	0.3461459
39	0x3ef1df2d	0.47240582
40	0xbeece5ff	-0.46269223
41	0xba162fc1	-0.0005729162
42	0xbe010f53	-0.12603502
43	0xbd9e007e	-0.077149376
44	0xbdd3c750	-0.1034075
45	0xbe53a0b3	-0.2066677
46	0x3e962002	0.29321295
47	0x3f098cff	0.5373077
48	0xbc33fce0	-0.010985583
49	0xbe0c5d7b	-0.13707535
50	0xbd87c84b	-0.0663
51	0x3ec1cd1d	0.37851802
52	0xbac0c0a8	-0.0014705854
53	0x3ecb12f5	0.396629
54	0x3d9e7539	0.07737202
55	0x3d6fa49a	0.058506586
56	0x3ebd8012	0.37011772
57	0xbf080c31	-0.531436
58	0x3efa1485	0.4884378
59	0x3f0179ee	0.50576675
60	0xbda47f76	-0.08032124
61	0x3edf615f	0.43628976
62	0x3ec1b441	0.37832835
63	0x3d07ace8	0.03312388
64	0x3eff4b75	0.49862257
65	0x3ea9183e	0.33026308
66	0x3e8f59a8	0.2799809
67	0x3ec7b2dc	0.39003646
68	0x3eda0451	0.42581418
69	0x3eb1fb7b	0.34762177
70	0x3ecebcfb	0.40378556
71	0x3f0c2726	0.54747236
72	0xbe461a52	-0.19345978
73	0xbd5569f0	-0.052102983
74	0x3ec70a78	0.38875175
75	0xbd63f7e3	-0.055656325
76	0x3f05c00d	0.5224617
77	0x3ed1af31	0.40953973
78	0x3d6fc276	0.05853506
79	0xbce01a58	-0.027356312
80	0x3eaf788e	0.34271663
81	0xbf311aec	-0.69181705
82	0x3edc73b3	0.43057021
83	0x3e48f35c	0.19624084
84	0x3ba21131	0.004945897
85	0x3ed9076c	0.42388475
86	0xbf4ebd04	-0.80757165
87	0x3ed8b852	0.42328125
88	0xbd44a3e3	-0.048007857
89	0x3cb4b79a	0.022060204
90	0xbf4c45f9	-0.7979427
91	0xbd0d1a93	-0.03444917
92	0xbebf0cf5	-0.37314573
93	0x3ecde990	0.40217257
94	0xbd7181bb	-0.05896161
95	0x3ebae81d	0.36505213
96	0xbea69fc9	-0.3254378
97	0x3edc0332	0.42971188
98	0x3f03498a	0.51284087
99	0x3eac245f	0.336215
100	0x3e9cf999	0.30659178
101	0x3ceb4f07	0.028724207
102	0x3eae0a09	0.3399203
103	0x3d886049	0.0665899
104	0xbd9c7807	-0.07640081
105	0x3cc4199c	0.023937993
106	0x3ec5a9f9	0.3860624
107	0x3ef738d7	0.48285553
108	0x3e7ab451	0.24482848
109	0x3ea19cba	0.31564885
110	0x3cccead4	0.025014319
111	0xbe1d1396	-0.15339503
112	0xbf334b5c	-0.70036864
113	0x3dbe9c49	0.09307153
114	0x3ca93627	0.020655705
115	0xbd75af92	-0.05998189
116	0x3d7e0bc2	0.062022932
117	0x3d88ebde	0.06685613
118	0xbc561418	-0.013066314
119	0xbd34e4f7	-0.04416367
120	0x3ee996d7	0.45622894
121	0x3ec32113	0.3811117
122	0xbd88448a	-0.06653698
123	0x3f0b687e	0.5445632
124	0x3ed9c87b	0.42535767
125	0x3ccb5878	0.024822459
126	0x3eb637a9	0.3558934
127	0x3e496155	0.19666035
128	0xbebbeadf	-0.3670263
129	0xbe79b0be	-0.24383828
130	0x3ea61b43	0.32442674
131	0x3e91e069	0.28491524
132	0xbf03ed3a	-0.51533854
133	0x3dc704ee	0.09717737
134	0x398b58ab	0.0002657821
135	0xbd845f3e	-0.064634785
136	0x3cb7f1de	0.022454198
137	0x3efb76c4	0.49114048
138	0x3eeacdcb	0.45860133
139	0x3edeadaf	0.43491885
140	0xbf2ff15d	-0.68727666
141	0x3d0cf7ad	0.03441589
142	0xbf1d8667	-0.61533207
143	0xbdabf00e	-0.08395396
144	0xbe91eeef	-0.28502604
145	0xbf0156cc	-0.50523067
146	0x3ec39a78	0.38203788
147	0x3ecb8077	0.39746448
148	0xbd672bff	-0.056438442
149	0xbf3a7005	-0.7282718
150	0x3dd9f762	0.10642888
151	0x3ece1a01	0.40254214
152	0xbd233a01	-0.03985024
153	0x3ecd5042	0.40100294
154	0xbcde9fd4	-0.027175821
155	0x3d028bf2	0.031871744
156	0x3eb22c12	0.34799248
157	0xbec861df	-0.3913717
158	0x3f0734c1	0.5281487
159	0x3ed0254a	0.4065345
160	0xbce35e2d	-0.027754867
161	0x3ee412a2	0.44545466
162	0x3f093758	0.5360007
163	0xba838430	-0.0010033902
164	0x3ec366d1	0.3816438
165	0x3e28ba0e	0.16477224
166	0x3ed34834	0.41266024
167	0x3efca8ab	0.49347433
168	0x3ed14a02	0.40876776
169	0x3ed07d51	0.4072061
170	0x3ef382d3	0.47560748
171	0x3eaab992	0.33344704
172	0x3ea0db9b	0.31417546
173	0x3d8de7c8	0.069289744
174	0x3ea7890e	0.32721752
175	0xbd9b5ce0	-0.07586074
176	0x3ee04091	0.4379926
177	0x3ef3bedf	0.4760656
178	0x3cae0c80	0.021246195
179	0x3b683b40	0.0035435706
180	0x3ed51deb	0.41624388
181	0xbec51210	-0.38490343
182	0x3ef850ae	0.48499054
183	0xbd4f5b48	-0.050624162
184	0xba3a7df5	-0.0007114106
185	0x3eece72b	0.46270117
186	0x3d48eb75	0.049052674
187	0x3ea16b92	0.31527382
188	0x3d8bf05e	0.06832956
189	0x3d2005b3	0.039067935
190	0xbe85132d	-0.25991192
191	0xbda11a31	-0.07866324
192	0xbf4af510	-0.79280186
193	0x3ed885d6	0.4228961
194	0xbd1b1128	-0.03785816
195	0x3efb7d1d	0.4911889
196	0xbf267f09	-0.6503759
197	0x3aa26528	0.0012389766
198	0x3ed32036	0.41235512
199	0x3ef91917	0.48651955

action_value.4.bias f4 [2]
0	0x3e161e3f	0.14659975
1	0x3e4461f6	0.19177994
