A2/pg_trainer_wb_metadrive_easy.pt (torch, 151130 bytes, 6 tensors)

network.action_value.0.weight f4 [100, 259]
00000000: 8c9e 1a3c ddee 983d e1b0 833d 6160 7f3d
00000010: eaac 673b 180c ce3c fd44 363d 854f 1fbd
00000020: 3fd3 3c3d e9ac 15bd c48a 4dbc 9335 44bd
00000030: cca6 86bc 5ddc 073d 4a0b 0c3d e8fd fd3c
00000040: 78ab 413c 891e 153d 1298 1d3c b33d 2f3d
00000050: 5ac3 fd3c a9e0 643d f86f 763d 823b 973d
00000060: 07f7 1ebd 77e9 953d 5e72 66bb 574a 2fbc
00000070: 81cf 1c3d 8fa3 d5bc 8aea 47bc 441d d73c
00000080: 584c 3b3d 1b70 bdbb a2bd 2d3d 6889 27bd
00000090: 6628 473c d634 823d 1c16 dcbc 22d9 143d
000000a0: 844b 9539 8592 5b3d 5215 833d 465f 2cbc
000000b0: 8efb bdbc f1c3 ca3c b8f0 e0bc a992 173d
000000c0: 3522 0d3d 5284 a43c dfdb aa3c 3a08 a03d
000000d0: 0430 923d f5c6 f8ba b97f 96bb 98d4 b73b
000000e0: 33dc 943d e06c 973d 4b1f a63c 7a40 893d
000000f0: 68a1 943d 8bc7 86bc 9cfc cd3c 6b1b 473c
00000100: 42e7 dabc aee5 4dbc 16ba c13c fbd0 0c3d
00000110: f299 1d3d a328 773d edbf 903d 12bc b4bc
00000120: 7617 6abc 360f bf3c b0be 0f3d 19f2 4d3d
00000130: dd5d 8d3d 477d 753d 98fe 213d c96e e93c
00000140: 19a5 00bd 530e 19bd 8eb0 533d 2186 d6bc
00000150: 3ec5 a43d 0d1e 0f3d c0be 383d 992e 9e3d
00000160: 6829 773d 0709 513c 8064 553d e4fc 8e3d
00000170: e60d 1fba eb5f 943d 6d02 81bc d960 f73c
00000180: e8c7 0abd cc73 7abc 3548 dcbc e879 c53c
00000190: 42db 9c3d 2b18 413d a966 bbbc b20f c43c
000001a0: 3ad0 2a3d 0336 c33c a001 553d 028d 833d
000001b0: da6e 983d 42ee cebc 5041 9b3d 0e8a 9a3d
000001c0: cf0b dcbc c6cb 77bc dbd5 513d cd1a 233d
000001d0: 7d27 853d 5ca4 82bc c57d a83d ef83 983c
000001e0: df48 9c3d 29d1 953c dd41 963d 4287 823c
000001f0: 7315 eb3c 505c bb3c 3a37 bbbc f4fe a63d
00000200: 4de0 e4bc dc62 d43c 135d cabc 195c 833d
00000210: 3be4 e53c edf2 0e3d 4ef1 11bc 1f04 623b
00000220: 15eb 8c3c e7fc 12bc c8af 843d 309f cebb
00000230: c311 abbc d6d4 4b3d 40db e73c 75e6 e8bc
00000240: fca7 173b 9261 523d 1ef5 543c 87bf 6c3c
00000250: b35c a73d 7c2d 863d 333f f63c 1032 823d
00000260: 8893 803d a2d9 e8bc f8b4 87ba a11c c5bc
00000270: 1007 4c3d 0d8a 66bc 6882 553d f919 1abd
00000280: b319 cf3c 429c b33c ddbb 753d 9719 923d
00000290: 0ce1 55bc d01c 32bc d693 0ab9 a02d 1fbd
000002a0: 59db a03d b239 a03d e92e 123d 4713 5c3d
000002b0: 1437 e2bb a2f6 2b3d c020 23bd 45ef a43d
000002c0: efc2 073c a73a 003d 848b cfbc b7aa 0bbd
000002d0: 1fc5 08bd e3b8 9f3d 7dbe 303d c708 6d3b
000002e0: 8480 bd3b c4de db3c b9f0 c73c a542 14bd
000002f0: 2b63 783d c76f 733b 463f 073d a91f 893d
00000300: 94c5 4c3d 9cdb bbbc 0ce6 603d ba5a 8c3c
00000310: 849b bdbc 8d37 da3b 7d21 033c 0fcb e63c
00000320: db9c 3e3c 1db5 973d 045c 9a3d e07f 093d
00000330: 587f 033c c784 1c3d 96bc 0b3d 6c55 9f3d
00000340: bcde 793d 2e2a 9fba d82c 6c3c 1f97 663d
00000350: 6326 af3b 3e9c a4bc 365e 66bc 7e02 653c
00000360: 16a1 723b 8df9 36bc 803f 813d 03cd 6b3d
00000370: c5a4 adbc 6c5c 92bc f283 03bd cea1 04bc
00000380: aee1 fdbc a2e7 413d 0dad a13d df6a b7bb
00000390: 8fc9 903d 252e ccbc afcd 9bbc 515e 953d
000003a0: 4985 a6bc 9615 cebb 9791 583d a2c5 1dbd
000003b0: 87a1 8f3d 5fcf a23d 789d a13d e299 f53c
000003c0: ad9d 783c 6acc 303d eb9b 883d 44b0 743d
000003d0: 9d34 473c 5f4d a23d 6800 fdbc 9202 6e3d
000003e0: 6272 813d df15 9c3d 47c7 663d bd68 b93c
000003f0: b22a 6b3d 91f5 dfbc aabc 013d eafb 533d
0.009437215 0.074674346 0.06430221 0.062347773 0.0035350868 0.025152251 0.044499386 -0.038894195
0.046099897 -0.036541853 -0.012545291 -0.047902655 -0.016436957 0.03316914 0.034190454 0.031004861
0.0118206665 0.036406074 0.009618776 0.04278345 0.03097694 0.055878315 0.060165375 0.07384397
-0.038809802 0.073199205 -0.0035163383 -0.010698876 0.03828383 -0.026078967 -0.012201915 0.026259072
0.045727104 -0.0057811863 0.042417176 -0.040902525 0.012155628 0.06357734 -0.026866011 0.036339886
0.00028475758 0.05360653 0.06400551 -0.010520762 -0.02319124 0.024751635 -0.027458534 0.0370051
0.03445645 0.020082626 0.020856796 0.07814069 0.071380645 -0.0018980192 -0.0045928624 0.00561006
0.07268562 0.07393813 0.020278594 0.06701751 0.07257348 -0.016452571 0.025144868 0.012152533
-0.0267216 -0.012566967 0.023648303 0.034378987 0.03847689 0.06034149 0.07067857 -0.022062335
-0.01428782 0.023322683 0.035093963 0.05027971 0.069026686 0.059933927 0.03954944 0.02849521
-0.03140745 -0.037367176 0.051682048 -0.026187005 0.080454335 0.034940768 0.04510379 0.077237315
0.060342222 0.0127585 0.052097797 0.06981829 -0.00060674397 0.072448574 -0.015748227 0.030197548
-0.03388205 -0.015286397 -0.0268899 0.024105981 0.076590076 0.04714219 -0.0228761 0.023933265
0.041702487 0.023829466 0.052003503 0.064233795 0.07443018 -0.025260095 0.07580817 0.07545863
-0.0268611 -0.015124267 0.05122934 0.03982048 0.065016724 -0.015947513 0.08227114 0.018617598
0.076310866 0.018288212 0.07336781 0.015933637 0.028696751 0.022871166 -0.022853483 0.08154097
-0.027938986 0.025926046 -0.024702584 0.064140506 0.02806293 0.03489964 -0.008907629 0.003448732
0.01720194 -0.008971429 0.0647884 -0.0063055977 -0.020882493 0.049763523 0.028302789 -0.028430203
0.0023140898 0.05136258 0.012997894 0.014449961 0.08171978 0.06551644 0.030059433 0.06357205
0.06278139 -0.028424088 -0.0010353616 -0.024061503 0.049811423 -0.014071 0.05212632 -0.037622426
0.025280809 0.021925095 0.059993614 0.07133787 -0.013054144 -0.010871127 -0.00013215779 -0.03886187
0.07854337 0.078235045 0.03568927 0.05372932 -0.0069035385 0.041983254 -0.039826155 0.080534495
0.008286222 0.031305935 -0.02533508 -0.034098353 -0.033391114 0.07798936 0.043150414 0.0036168562
0.0057831425 0.026839621 0.024406778 -0.03619637 0.06064145 0.0037145482 0.033019327 0.06695492
0.049993113 -0.022931866 0.05490689 0.017133106 -0.023145445 0.006659454 0.00800359 0.028172998
0.011634077 0.074075915 0.07537082 0.033569217 0.008025967 0.038212564 0.034115396 0.07779965
0.06100343 -0.0012143308 0.014414988 0.056296464 0.005345152 -0.020094033 -0.014060548 0.013977645
0.0037022284 -0.011167896 0.0631094 0.05756856 -0.021196732 -0.017866336 -0.032108255 -0.008095218
-0.030991402 0.047340043 0.07894335 -0.005597457 0.07069694 -0.024924347 -0.019018976 0.0729338
-0.020327227 -0.0062891943 0.05287322 -0.038518555 0.07013231 0.07949709 0.07891363 0.029980604
0.015174312 0.043163694 0.06670364 0.059738412 0.01215854 0.079249136 -0.030883983 0.05810792
0.06320645 0.07621359 0.05634239 0.02263295 0.057413764 -0.027338775 0.031674065 0.051753916

network.action_value.0.bias f4 [100]
00000000: a182 313d c4cc 673d ff3d abbc 7de2 f03c
00000010: a455 8fbc 6081 b5bb 4c53 e8bc af8b 03bd
00000020: ba91 243d a2a0 fabc 4404 8ebb 30f1 f03b
00000030: 43e1 d03b 6444 09bd d583 31bc 812e 47bd
00000040: a31b 14bd 8864 7cbc 7d6a 25bd 3ae2 403d
00000050: 4432 27bc 10dc ebbc a059 37bc c97c 63bd
00000060: 0acb 08bd 844b a83d 9e58 13bd e8cc 3ebd
00000070: b38e 7bbd f61a 30bd 3a14 473d 9bdf 5d3d
00000080: 1b0b 903d 1a81 3a3d 970c 3a3d 0538 2dbd
00000090: 3771 4b3d 12bd 11bd 1da8 95bc 26a4 853d
000000a0: 23e4 363d f458 adbc dc34 6a3b 14f9 623d
000000b0: 9db7 4c3d 42be 383d 0d6a 28bd a587 873c
000000c0: a4e2 3fbd 9895 713c 1d9d 97bc 08b2 01bd
000000d0: 9e74 2b3d f4cf 3dbc ce08 29bd f604 45bd
000000e0: d6f2 30bd 4e72 a3bc 34ec c0bc 0ba1 07bd
000000f0: 037d 413d f069 1fbb 9e61 f5bb 70f6 0ebc
00000100: d762 093d 8202 e33c 1ed6 74bd 2526 7e3d
00000110: 6745 17bc 7d28 863b 5459 ffbc be97 8bbc
00000120: 569d 86bd d9fb 0dbc 77a4 773c 0a0a 42bc
00000130: 5bdf 02bc 15f4 9bbc e5b3 3e3d 6b2d 8ebd
00000140: 4041 0dba dee7 eb3c dd89 6e3c d709 893d
00000150: 9227 12bd e2ba 213d 4096 96bc c006 a83c
00000160: b317 e73b b938 183c fab7 763c 30e4 393d
00000170: c545 12bd 0083 c83a 530d 313d 2f9a 403d
00000180: 7a4b 1ebd 549f 7a3d ad80 81bc 0b64 413d
0.043337468 0.056591764 -0.020903585 0.029404873 -0.017496891 -0.0055391043 -0.028360032 -0.032115635
0.04017804 -0.030594174 -0.0043340046 0.0073529705 0.0063745095 -0.033512488 -0.010834654 -0.048628334
-0.03615917 -0.015404828 -0.04038476 0.047090746 -0.010204855 -0.028791457 -0.011190802 -0.055538926
-0.03339676 0.082175285 -0.035973184 -0.046582133 -0.061415385 -0.042994462 0.048603274 0.054168325
0.07033368 0.045533277 0.045422163 -0.042289753 0.049668517 -0.035580702 -0.01826864 0.065254495
0.044651162 -0.02116058 0.0035737073 0.05541332 0.049979795 0.04510332 -0.041116763 0.016544173
-0.046847 0.014745139 -0.018507535 -0.031663924 0.04185926 -0.011585224 -0.041268162 -0.048100434
-0.043200336 -0.019951966 -0.02355013 -0.033112567 0.04723836 -0.0024324618 -0.0074884435 -0.0087257475
0.033541527 0.027711157 -0.05977451 0.062048096 -0.009232855 0.004094182 -0.031170525 -0.01704013
-0.06572978 -0.008666002 0.015114895 -0.011843214 -0.007987822 -0.019037286 0.04655828 -0.069422565
-0.0005388446 0.028797086 0.014559236 0.0669133 -0.03568227 0.039484866 -0.018382192 0.020511031
0.0070523857 0.0092908675 0.015058512 0.045383632 -0.03571107 0.001529783 0.043225598 0.04702204
-0.0386462 0.061187103 -0.015808428 0.04721455

network.action_value.2.weight f4 [100, 100]
00000000: c68d d03c a3df bfbd 51ee edba aac6 a73d
00000010: a116 f23c 6eed 9fbc 4017 263c 8c9f 2cbc
00000020: 5017 fd3b 34c1 343d 22ed 23bd 10ad 06bd
00000030: 01b1 813d a74b 98bc 623e 503d 632b b93d
00000040: 1025 c43d fb0f 583d f6de e7bc 2544 593c
00000050: 2da5 09bd f4b1 2b3d 438c 9b3c 5a0d 7ebd
00000060: b2bd 9dbd fcaf aa3d 9b63 ab3d 4003 bb3a
00000070: 4184 ff3c b8b2 8dbc 9261 8f3d 19bd 9e3d
00000080: 216b b73d 2709 1abc 4c9f 0e3d 6ae3 a23d
00000090: 85e7 1f3b fa9f 123d e4ad c73d 67a7 01bd
000000a0: 9af8 a83d 606c ab3b ccf8 b13d aae4 85bd
000000b0: cd04 c43c 3bea af3d 7a71 af3d ea69 413d
000000c0: 0419 d23d c998 a73d 1ad5 9abd 9b01 d7bc
000000d0: 1886 26bd 0e6d 3dbc 42c5 943d ec05 a1bd
000000e0: 8d44 7dbd 8ada bcbd 70ba 04bd 8657 d93c
000000f0: 0aa7 3b3d fa7d 193d b151 3abd cbd4 a1bd
00000100: 3925 88bd 5249 9bbd 6fd7 933d 1217 e53a
00000110: 6ae8 c03d c241 e53b 246d 5cbd 642b a83d
00000120: 91b6 673c e324 543d 60fe 7cbd 46cb 663c
00000130: 60b8 a1bd 3b26 343d e2ea 2cbd 3e2e 433d
00000140: 7eee 403d 2893 993d 2a9f c1bd ce60 773c
00000150: 4d4d a03d 65c6 bbbb cd21 5fbd 032c 04bc
00000160: edfb bb3d 83be 453d c2cc a3bd e885 b33c
00000170: 168e 3b3d e0d4 14bd c94b 6c3d 6a4c fe3b
00000180: aa2a 8dbd 44b0 bc3d 4ad2 23bd 646f c33d
00000190: dbf8 0cbd 9f89 c3bd 0c45 c0bc fa4b 27bd
000001a0: 8099 2dba 8fe3 c8bd 0033 9839 44b7 793d
000001b0: 20ce b73c 7231 993d 106f 72bc 4a97 2d3d
000001c0: 0059 4b3b 0329 8c3d 2353 72bd da56 063d
000001d0: 290f 89bd 555b b13b d163 c43d c182 3c3c
000001e0: 93c9 a83d c695 13bd 53a7 b33d 8012 223a
000001f0: fade 1d3d 42f3 b7bd f1a6 c13d e399 71bd
00000200: 1df7 c43d edd2 913d 7a1c 18bd 7ad8 9cbd
00000210: ae47 55bd ea1d 8bbd 793c b43d b7b4 a53d
00000220: 43b1 183d ff1f c73d 9d46 2cbd 5c6e 9a3d
00000230: 61aa fbbc 612f b33d a0e1 923b 25c1 3bbc
00000240: 409f bdbc 1352 8fbd e82b b63d 922b a1bd
00000250: 5f49 c5bd a0fe d8bc b61f 1a3d 97e9 9f3d
00000260: f190 b83d 00c5 6cbc ea32 cfbd 6881 843c
00000270: 7c42 fd3c 3420 b83d b53c 203c f4fe 83bd
00000280: 5af1 013d 40fe bc3c 7334 443d 1898 1f3c
00000290: d185 a13d 92a9 8bbd 3746 8d3b 8a9d bd3d
000002a0: 9ed1 91bd 413f 213d 674a 9abd 4ba3 1cbd
000002b0: 9421 cebc 7215 91bd 2aac 9a3d b061 c33b
000002c0: f7d2 9abd 7bd1 a6bd db5b a3bd 2ded 6dbc
000002d0: 09ea c63d d549 0f3d 1217 b7bd 1345 64bd
000002e0: 9e85 003d 165c 00bd 9110 a03d 8084 95bc
000002f0: 78eb f7bc 8a7a 91bd 535c 38bd 00dd a439
00000300: c959 9b3d 18f8 6abc fb96 2f3d 0049 d33b
00000310: 40ab b0ba fe7f 9abd de1f 0bbd 4715 1e3d
00000320: 2e3a b93c 5b40 c53d f6b3 393d 2047 a8bc
00000330: 3478 90bd 7dc8 c8bc ee53 493d 492f 893d
00000340: a0db b3bb 1f18 563c d350 36bd 008c e53b
00000350: 31a3 40bd 9c17 eb3c 3828 043b 0cec b4bd
00000360: 07a0 9e3d ebdb a63c 1ecd 453d 79aa fabc
00000370: 947f 163c 08c8 71bc 9550 a73c 783a cb3c
00000380: 2032 b9bb 9af7 4e3d 9420 d03c 28ae 72bc
00000390: 62a4 c73b 6fd9 d4bd 1436 d0bd 1988 b4bc
000003a0: 030b ba3d 9248 8ebd bfed ec3c a27a 7c3d
000003b0: 19a6 19bd 644c f03c 9ea8 77bd b986 56bc
000003c0: c564 8e3b e0f4 98bb e35f c13d b8d8 f43c
000003d0: 224b 14bc 53de 463c fae7 bc3d d813 adbc
000003e0: 7f71 863c 606d 603b 4122 cfbc c7a8 e33b
000003f0: 535c 28bc c57c aabd fc5b ad3d 1b6f 89bc
0.025458228 -0.09368827 -0.0018152689 0.08192189 0.029551806 -0.019522395 0.010137379 -0.010536086
0.0077237263 0.044129565 -0.04002107 -0.03287989 0.06332589 -0.018590761 0.050840743 0.090414785
0.095773816 0.052749615 -0.028304558 0.013260876 -0.03360479 0.041917756 0.01898778 -0.06202445
-0.07702197 0.083343476 0.083686076 0.0014267936 0.031190993 -0.017297134 0.07001032 0.07750911
0.0895598 -0.009401596 0.034819886 0.07953532 0.002439947 0.035797097 0.09749964 -0.031653788
0.08250542 0.005231425 0.08690032 -0.06537755 0.02392807 0.08589598 0.08566566 0.04722015
0.102586776 0.08183438 -0.07560177 -0.026245883 -0.040655226 -0.011561645 0.072641864 -0.07862458
-0.061832953 -0.092213705 -0.032404363 0.026530992 0.045813598 0.037473656 -0.045488063 -0.07901915
-0.06647725 -0.07582344 0.07218825 0.0017478189 0.094193295 0.0069963643 -0.053815022 0.08211401
0.014142648 0.05179299 -0.06176603 0.01408655 -0.07896495 0.043981772 -0.04221619 0.04765152
0.047102444 0.07498771 -0.09454186 0.015098764 0.07827244 -0.0057304376 -0.054475594 -0.008067134
0.091789104 0.04827739 -0.07998039 0.021914437 0.0457898 -0.036335826 0.05768946 0.007760574
-0.06892903 0.092133075 -0.03999547 0.095427305 -0.034417015 -0.095477335 -0.023470424 -0.04084394
-0.00066222996 -0.09809028 0.00029029697 0.06096579 0.022437155 0.07480134 -0.014796987 0.04238061
0.003102839 0.0684376 -0.059161317 0.03279767 -0.06692345 0.005412499 0.09589351 0.011505784
0.08241572 -0.036031507 0.08772149 0.0006182566 0.038542725 -0.089819446 0.0945567 -0.05898465
0.096174456 0.07120309 -0.037136532 -0.07658477 -0.052070312 -0.06792815 0.08800597 0.08091109
0.037278425 0.097229 -0.04205953 0.07540581 -0.030720891 0.08749271 0.004482463 -0.011459623
-0.023147225 -0.06998076 0.08895093 -0.078696385 -0.09633135 -0.026488602 0.0376279 0.078082256
0.090120204 -0.014451265 -0.10117133 0.016174987 0.030915491 0.08990517 0.009780099 -0.06445113
0.03172431 0.023070455 0.047901582 0.009740852 0.078868516 -0.06819452 0.004311349 0.09258564
-0.071200594 0.039366964 -0.07533722 -0.038241666 -0.025162496 -0.070841685 0.07552369 0.005962573
-0.075597696 -0.08145424 -0.079765044 -0.014521879 0.097126074 0.03498252 -0.08939947 -0.055729937
0.031377427 -0.03133782 0.0781566 -0.018251657 -0.030263647 -0.071034506 -0.045009922 0.00031445175
0.075854845 -0.014341377 0.042868596 0.0064479113 -0.0013478771 -0.07543944 -0.033965938 0.03859451
0.02261075 0.096314155 0.04533764 -0.020541728 -0.07054177 -0.024509663 0.049152307 0.06698472
-0.005488828 0.013067274 -0.044510674 0.0070052147 -0.04703063 0.028697781 0.0020165574 -0.08834085
0.077453665 0.020368537 0.048291318 -0.030598866 0.00918569 -0.014757164 0.020424167 0.024808154
-0.0056517273 0.0505291 0.02540616 -0.01481203 0.006092594 -0.10393035 -0.101665646 -0.022037553
0.090841316 -0.069474354 0.02892196 0.06164039 -0.03751192 0.0293333 -0.06046354 -0.013093644
0.0043455088 -0.0046678632 0.09442117 0.029888496 -0.009051116 0.012137967 0.092239335 -0.021127626
0.016411541 0.003424488 -0.025284888 0.00694761 -0.010275918 -0.08324579 0.0846481 -0.016776612

network.action_value.2.bias f4 [100]
00000000: 7e84 7b3d 5752 4bbc 54d2 b2bd 813a d0bd
00000010: 6439 4c3d ca78 8fbd fdac 9fbd 703f b9bd
00000020: 23d8 51bc ff51 92bc a5d5 ab3d 3120 c13d
00000030: 0e93 373d 9f77 b9bd fefd 34bd db43 fabc
00000040: 3891 623d ac5a 203c 44fe 093d 08ed c4bd
00000050: 49fa 73bd 7e5d 883d ec11 f7bc 4149 ba3d
00000060: 46d6 4b3d 88f3 30bc e672 ba3c 8332 b1bd
00000070: 8623 473d 8675 323d 2d55 ea3b 51ae 953d
00000080: d80b d2bb d2ed 553d fb24 b6bd 05a8 a63d
00000090: 3428 f7bc e010 593d 80b6 4bbc b724 cb3d
000000a0: ad5b c0bc 06d1 4a3c aac4 103d 1d08 dd3c
000000b0: ef66 d4bc 9c25 4dbd ff8d 94bd ecac 73bd
000000c0: 03cb 9c3c 1e04 83bb 6a5d 2a3d a106 2c3d
000000d0: 0ba9 8b3d 00db a43c 7745 8abd b3e3 cabd
000000e0: 44be 2fbd 5a6e 5cbd baf0 94bd 6a73 a6bd
000000f0: 67c3 343d 5d0c 9e3d b72f 89bd 2cf6 89bc
00000100: 03a8 79bd abec 60bd 8676 5fbd 9279 373d
00000110: 79d6 fb3a 4b69 16bd 0ab0 293c 7b8b 9cbd
00000120: bbf5 be3d 9369 a9bd 4f38 7b3d 6553 29bd
00000130: b6a9 1fbc fd32 aebc 3873 7bbd ed4f 7bbd
00000140: 0ce9 833a c355 9bbd eb80 84bd 755f a93d
00000150: 049b 1abd 96a1 5f3c 2f92 8d3b 1452 89bc
00000160: dc43 84bd 56a4 203d 72e5 5a3d d0c6 69bc
00000170: ef7b 8d3c 5dc7 11bd c0ff 81bd ba46 06bd
00000180: 8742 ad3d ac1e 04bd 7635 0cbd d334 14bd
0.06140565 -0.012409768 -0.08731523 -0.10167409 0.04985942 -0.070054606 -0.07796667 -0.09045303
-0.012807879 -0.017861364 0.08390359 0.09429968 0.044817977 -0.09056019 -0.04418754 -0.030549934
0.055314273 0.009787243 0.033689752 -0.096155226 -0.059564862 0.06658457 -0.030159913 0.09096003
0.049764894 -0.01080025 0.022759866 -0.086522125 0.048617862 0.04356911 0.007151267 0.07308639
-0.0064101033 0.052228756 -0.08893772 0.08137516 -0.030170538 0.05299461 -0.012433648 0.09919112
-0.023481214 0.012378937 0.035343803 0.026981408 -0.025927989 -0.050084695 -0.07253646 -0.059491083
0.019139772 -0.0039982935 0.041592993 0.04199851 0.06819352 0.020123959 -0.067515306 -0.099067114
-0.04290606 -0.053816177 -0.072724774 -0.08127482 0.044131663 0.07717202 -0.06698554 -0.016841017
-0.060951244 -0.054913204 -0.054556392 0.044793673 0.0019213698 -0.03672151 0.010356912 -0.07643791
0.09324213 -0.0827209 0.061332997 -0.041339297 -0.009745052 -0.021264547 -0.061389178 -0.06135552
0.001006396 -0.07584717 -0.06469902 0.0827016 -0.03774549 0.013649365 0.004320405 -0.01676277
-0.06458256 0.039219223 0.053441472 -0.014268592 0.01727101 -0.03559052 -0.063476086 -0.032782294
0.08459955 -0.032255813 -0.03423067 -0.03618319

network.action_value.4.weight f4 [9, 100]
00000000: 735c 1fbd 06e6 87bd bb31 10bc d950 9b3d
00000010: f628 a3bd afd9 973c 7230 a23c 4044 9fbd
00000020: 7b71 763d ef18 b23c 964a b03d 1bf2 93bd
00000030: 6109 b53d a6ab 63bc 3f2b 35bd 0b18 003d
00000040: af1f 29bd 75d0 8e3d 28d1 bb3c 189f bfbd
00000050: 8967 913d 666e 38bc 1258 023b 533b fabd
00000060: d9e9 b53d 342d c1bb 52ff 553d edaa 35bd
00000070: 0e73 783d d0f1 773d 5eff 893c 30cf 74bd
00000080: eab1 963d 0585 cdbd f2ec 553d dc92 abbc
00000090: 0813 88bd 8b21 b1bd 699e c33d a841 1ebc
000000a0: 89f4 b93c aef5 05bd 4888 843c a770 eebd
000000b0: 28eb f9bd 673c 103d b086 5839 094d bdbd
000000c0: 8f84 a7bc 9b32 fcbb a1a0 b03d abf4 b1bd
000000d0: f264 5e3d 9ba0 323d cb5d 123d d5ec 823d
000000e0: 2932 5a3c e115 af3d 3105 cb3d 59fe 14bd
000000f0: b81f 913d a082 51bd 44a0 613c 790c c23d
00000100: be7e 38bd d876 70bd 18c3 743a ebc4 41bd
00000110: 89e6 0e3d c9db 1e3d 3cca e6bd 5516 b6bd
00000120: 6d9a 3abd 5675 bfbc b247 93bd 8a51 bd3d
00000130: 6934 ecbd 39e9 463d 7429 6a3d 63ab b73d
00000140: e225 203d 2074 b7bd aefc 9abd 62a3 02bd
00000150: b5c5 c8bc 6618 acbb 9e7e 8fbd 3bb8 2ebc
00000160: 7fa6 44bd e505 adbd 307d 10bd 2045 bdbc
00000170: cc05 29b9 d3f5 22bd ba6b e3bd 9d5c a83d
00000180: 50ff 283d a819 88bc 4091 cc3c 75bf 71bd
00000190: d277 803d ac8c bc3d bda7 a13d a70d 6b3d
000001a0: 49bb 2a3c e796 763d e9ab 8c3d a89a e6bc
000001b0: 32f9 9cbd 3f6b bebd 09a1 23bd 3b0c 8a3d
000001c0: 00d7 e03b 79a0 973c 3961 583c 75a7 85ba
000001d0: 4c1a 5e3d 7d0b 953d b505 01bd cfad c03d
000001e0: 934a 63bd bf52 cebd 3708 d43c 8c69 d6bb
000001f0: 6099 1ebb e083 64bd c211 db3b da0d 9bbd
00000200: d018 88bb 46ae cdbd 6046 803a 47ad a8bd
00000210: e8ef d23c 4562 6c3d d2ac 273d 42d7 ea3c
00000220: b8f3 c73c 44f8 58bd d996 bf3d a0a0 e7bb
00000230: 0f45 f83c 43db b0bd c06f 27bb 737a 073c
00000240: f6e1 043d 5025 acbc e658 e83c eec6 8dbd
00000250: 9826 3bbd 689b dbbd 123b b5bd c4be 9e3d
00000260: adb7 b23d 1fdc cbbd 657e 093c b03a f1bb
00000270: c232 323c 4289 bebd d144 8a3d ccb6 b7bc
00000280: 03f0 253d d417 0abd df83 75bd f07b c1bd
00000290: 97b9 353d 41ed adbd df96 dfbc ba89 ddbb
000002a0: 7337 bdbd 3735 82bd 5493 a43d 61f7 b43d
000002b0: aa0c 0d3d 67c4 93bd 6f7a bdbd a674 29bd
000002c0: 7984 77bd f178 c0bd deb4 e4bd e79f b13d
000002d0: dd71 323d 6676 453d 4b8b 05bd b75d 85bb
000002e0: dccc 90bd 7913 8bbc 3eae 333c 9063 3cbc
000002f0: e3c1 05bd e558 b93d c27a 513d 5a1f 0d3d
00000300: 9a5d a6bd a361 e9bc d0a9 eabc da06 633d
00000310: 600e 65bd 9a98 70bd f731 9b3d bc26 8dbd
00000320: 68a2 58bc 5d15 70bd ef9d 2f3c 7d12 a8bc
00000330: 1e18 9a3d 5c7e fdbc 87c2 45bd 548d cf3c
00000340: 5399 853d 19bf 9fbc 584c ad3d 4260 403d
00000350: 027f 393d 1514 abbd 41c9 513d c0f8 59bd
00000360: 6616 d43c 80c6 8f3d 7c92 a7bc 7e8b 463d
00000370: 0ade 353d 244b a73d 8261 21ba 496b 463c
00000380: 002b 23bb 7a6e acbd 3336 933d 88a9 93bc
00000390: 173c b23d 6f08 6abd 2def 073d 7403 c4bd
000003a0: 4c84 67bd 95a6 24bd f2f6 7c3d 6e8c 4c3c
000003b0: 4b7e 913d 159d a5bd 60da b83c 3ddc 9e3d
000003c0: bcc6 bcbd 207b 113d e5e7 86bd 2991 a0bd
000003d0: 6319 89bd ac72 ba3a 6f12 93bd ea56 863d
000003e0: 7a19 8dbd 7edd 7a3d 9a99 41bd 6171 b73c
000003f0: b009 3abd 1d0c e5bd f4b9 85bd 6b45 b8bd
-0.038906526 -0.0663567 -0.008800919 0.0758378 -0.07966797 0.018536417 0.019798491 -0.077766895
0.060166817 0.021740405 0.08607976 -0.07223912 0.088396795 -0.013895905 -0.044230696 0.03127293
-0.04128998 0.06973354 0.022926882 -0.093565166 0.07099826 -0.01125679 0.001988892 -0.122183464
0.088824935 -0.005895281 0.052245446 -0.04435246 0.0606566 0.060533345 0.016845401 -0.059767902
0.07358153 -0.10035137 0.05222792 -0.020944051 -0.06644255 -0.08648976 0.09551699 -0.009659208
0.022699611 -0.032705 0.016178265 -0.116425805 -0.122030556 0.035213854 0.0002064954 -0.09243209
-0.020448951 -0.0076964623 0.086243875 -0.08689245 0.054295488 0.043610197 0.03573398 0.063928284
0.013317623 0.08549095 0.099130996 -0.036375377 0.07086128 -0.051149964 0.01377112 0.09475035
-0.045042746 -0.05870709 0.00093369326 -0.047306936 0.034887824 0.038783822 -0.11269042 -0.08890978
-0.04555743 -0.02337138 -0.07191409 0.09244068 -0.11533434 0.048562262 0.05716844 0.08968236
0.039098628 -0.08957696 -0.07567726 -0.031894095 -0.024508337 -0.005251932 -0.07006572 -0.010664041
-0.048010346 -0.0844839 -0.035275638 -0.02310425 -0.00016119255 -0.039785217 -0.111045316 0.082207896
0.04125911 -0.016613796 0.024971604 -0.05902048 0.06272854 0.092065185 0.07893322 0.057386067
0.010420629 0.060202505 0.06868727 -0.028149918 -0.07664718 -0.09297799 -0.039948497 0.06740614
0.0068615675 0.018509137 0.013206773 -0.0010197001 0.054224297 0.07277582 -0.031499583 0.09408151
-0.05549104 -0.10074376 0.025882823 -0.006543344 -0.0024200305 -0.05578983 0.0066854665 -0.07571001
-0.0041533485 -0.10043006 0.0009786598 -0.08236175 0.025749162 0.057710905 0.0409363 0.028667096
0.024408206 -0.05297114 0.09354944 -0.0070687085 0.030306367 -0.08635571 -0.0025548786 0.00826894
0.032442056 -0.021013886 0.028362703 -0.069227085 -0.045691103 -0.10723001 -0.088491574 0.077512294
0.087264396 -0.09954094 0.008391951 -0.0073617324 0.010876359 -0.093035236 0.06751407 -0.022426032
0.040512096 -0.03371413 -0.059940215 -0.09447467 0.044366445 -0.08492518 -0.02729362 -0.006760803
-0.09239092 -0.06357806 0.08035913 0.08836246 0.034435906 -0.07215195 -0.09251868 -0.04137101
-0.06042907 -0.09398068 -0.1116731 0.08673077 0.04356562 0.048208617 -0.032603543 -0.0040700096
-0.07070324 -0.016977059 0.010966836 -0.011498347 -0.032655608 0.090501584 0.05114246 0.034453727
-0.08123322 -0.02848894 -0.028645426 0.055426456 -0.055921912 -0.058739282 0.075778894 -0.068921536
-0.013222314 -0.058614124 0.010718807 -0.020516628 0.07524131 -0.030944042 -0.04828122 0.025335945
0.06523385 -0.019500302 0.08461827 0.0469668 0.04528714 -0.0835344 0.05121732 -0.053215742
0.025889587 0.07020283 -0.020455591 0.048472874 0.044401206 0.08168629 -0.00061561924 0.01211054
-0.0024897456 -0.08419509 0.07188072 -0.018025175 0.087028675 -0.05713695 0.03318708 -0.09570971
-0.056522653 -0.040197928 0.061758943 0.012484653 0.071041666 -0.08086602 0.022565067 0.07756851
-0.09217593 0.03551781 -0.06587199 -0.07840187 -0.06694295 0.0014224849 -0.0718125 0.06559546
-0.06889625 0.061246388 -0.047265626 0.02239293 -0.045419395 -0.11183951 -0.06529608 -0.089976154

network.action_value.4.bias f4 [9]
00000000: ed7f 943b 5886 b8bd 70df ac3c 61d7 0f3c
00000010: 4825 993d 0fc7 333d b1b4 99bd 7bd6 113d
00000020: 8fef 293d
0.0045318515 -0.09009999 0.021102637 0.008779378 0.07477814 0.04389101 -0.07505167 0.035604935
0.041488227
