A2/pg_trainer_wb_metadrive_hard.pt (torch, 157594 bytes, 6 tensors)

network.action_value.0.weight f4 [100, 259]
00000000: 1d45 c73b b5cf aebd fc7a b6bd 9757 e23c
00000010: e265 103b 1418 28bd b84e afbd bf4c 183c
00000020: b6c3 b8bd 0d5c 0c3d 5dac adbd f409 9f3c
00000030: 9c89 2cbd e636 ddbb 7118 ca3b 42b0 fd3c
00000040: 0025 ab3d 1a60 6bbc 4c66 be3c 773e 043d
00000050: f757 9dbd e5d9 53bc 53ed 11bc 2bf3 033d
00000060: 797a bb3c 4eec 4dbd 0102 d33c cb6f 87bd
00000070: dfeb a7bd 6b0f cdbc 71c0 9cbd 6335 a8bd
00000080: 3cea f13a cf1c e5bc c73a 79bd 7fc9 31bd
00000090: b19a 03bd 6d4f fdbc d8bb 343c 5ef7 fb3c
000000a0: 7b08 ff3c f7d1 9bbc c9ec 3f3c bc51 8bbd
000000b0: 4706 df3c a666 b5bd dc42 3ebd b44b f7bb
000000c0: de0f 7b39 e047 50bc e270 15bd 6fbc a8bd
000000d0: 7966 c43c 03d4 b8bd 5a94 9bbd a11b 1ebd
000000e0: 340f 39bd 6986 003d c6c7 98bd b03f c83b
000000f0: 0d3a 3cbd 81de 3abc de5e 933b fa4c 9abd
00000100: 5e57 fa3c 11da d43c 7380 e8bc 770d 4fbd
00000110: ed5b 863c 23cf babd 4a0a 9cbd d701 683b
00000120: 63e5 023d f0ce 56bc 7b55 edbc 8042 4b3c
00000130: 55aa 86bd efdb e7bc 3b89 e1bc 09cb cc3c
00000140: 0db5 ac3c 30bc f43c fe00 abba 1785 f5bc
00000150: 40fe b4bd 022c fb3c d80c b1bd 8410 64bd
00000160: 940f 9fbb f396 c1bc ca2e 84bd 85cc 91bd
00000170: c08f 253c b654 37bd 9486 98bc 8a55 98bd
00000180: a136 45bd ff3a e4bc fab4 79bd 7464 84bb
00000190: 986c 44ba 36f0 aebd 1685 a1bd c4bd 95bd
000001a0: 32db 97bd c1a7 89bd 930d 5dbd d152 ef3c
000001b0: 87a2 91bd 69ec 64bd f1c4 ae3c 4392 fc3c
000001c0: 738a 31bd 0985 efbc cf4d acbc e9f2 7abc
000001d0: 9994 fdbc 79b8 60bd d41c 85bd 619c 72bc
000001e0: 1be5 10bd b6dc ed3c a3f3 eebc 188e 96bc
000001f0: b073 a336 6036 82bd 5df2 b23c d939 1bbc
00000200: 5404 a3bc 05af abbd 2965 a1bd 90f9 4bbd
00000210: 2373 1bbd e843 90bc 49e8 42bc a5c4 c03c
00000220: 3f6e cbbc 43fa bcbc 8a02 fc3c 22b7 28bd
00000230: 3c77 e53a a9a4 87bd 1705 88bd 0467 90bc
00000240: 09cd 863c e306 ddbc 4d79 37bd 0970 3cbd
00000250: 2bea a1bd c1fd 35bd ff4e 31bb 2f93 58bd
00000260: bc8b e83a e042 cd3b 937e 57bd 65a9 1abd
00000270: 8905 42bd 5135 573c 9ea0 9bbd 5114 37bc
00000280: 57ec 06bd fa41 45bd dff0 8abd 1601 76bd
00000290: d29c 72bd 04a1 9bbc 75d2 8f3c f336 b0bd
000002a0: b5a6 023d aaeb 39bd a896 38bd 7e08 2ebd
000002b0: 04d9 98bc 9270 87bc 3864 babd d24b cdbb
000002c0: b71a e13c 3bf3 0dbd fc4a 05bc 4f27 56bd
000002d0: a4f7 a7bb c6a4 cdb8 58ef 4c3c 2a89 4bbd
000002e0: d704 053d 791d 593c efad a439 2faa 7cbd
000002f0: 02b2 a8bd 74f9 22bd 89ff 82bd 9ccf 43bd
00000300: 0c52 96bd eddb d83c 3fdd f1bc ac53 803b
00000310: b2e6 a9bd 402d 66bd 6204 a5bd e3ec bcbc
00000320: 0b00 9dbc 0921 d23c 5e94 18bd 1110 64bd
00000330: 9c44 f23c a204 66bd c266 43bd 2778 b2bc
00000340: fc9a e23a cf0f 033c 573d e1bc f49a 97bc
00000350: 78ad 9fbd 1d33 bf3c c67d 95bd ef14 123c
00000360: ccb3 5dbd b85d 8dbd 10c3 56bc 720e 38bd
00000370: 23da 0abc bb01 2dbd 8454 a03a 0e7e 9ebd
00000380: 5feb 91bd 64d0 97bc 164c 02bd c285 45bd
00000390: 91ba b93c 7aa0 3fbd 484a 52bb fa12 4ebd
000003a0: 2f8c 9ebd 3350 92bd 0d8d 853c b3b1 44bd
000003b0: 7979 41bc 7e55 8e3b 2624 60bd dfbc e53c
000003c0: f404 2dbd 60e6 40bd 6402 61bd 186c 42ba
000003d0: cda1 19bd b783 acbc 4790 54bd c291 81bc
000003e0: 488a 0fbd 6d1a aa3c 4207 6bbd b50c 843c
000003f0: fde8 19bd 4f6e b6bd da87 58bd 7839 e5bc
0.006081237 -0.08535711 -0.08910176 0.027629657 0.0022033383 -0.041038588 -0.08559936 0.009295641
-0.09021704 0.034267474 -0.08480141 0.019413926 -0.042123422 -0.006750929 0.0061674644 0.030967835
0.083566666 -0.014366174 0.023242138 0.032286134 -0.076827936 -0.012930368 -0.00890668 0.032214325
0.022885548 -0.050274186 0.025757791 -0.0661312 -0.08199286 -0.025031766 -0.07653893 -0.08213308
0.0018456648 -0.027967839 -0.06084707 -0.043405052 -0.032129947 -0.030921662 0.011031114 0.030757602
0.031131973 -0.019021017 0.011714169 -0.06802699 0.027224673 -0.08857469 -0.04645048 -0.0075468663
0.00023943136 -0.012712449 -0.036484607 -0.08239066 0.023974644 -0.09024813 -0.07596655 -0.038600568
-0.045180514 0.031378184 -0.07459979 0.0061111078 -0.0459538 -0.011405588 0.004497393 -0.07534213
0.030559238 0.025982888 -0.028381562 -0.05054995 0.016401256 -0.091215394 -0.0761915 0.0035401487
0.03195704 -0.013110861 -0.028971424 0.012405992 -0.06575457 -0.028303115 -0.027531257 0.024999158
0.021082425 0.029874891 -0.001304656 -0.029970689 -0.08837557 0.030660633 -0.08645028 -0.055679813
-0.004854152 -0.023631549 -0.06454237 -0.07119087 0.010105073 -0.04475852 -0.01861886 -0.0743819
-0.0481478 -0.027860163 -0.06096361 -0.0040402953 -0.00074929884 -0.0854191 -0.07886712 -0.073115855
-0.07414855 -0.0672145 -0.053968024 0.029214295 -0.07111078 -0.05588952 0.021334143 0.030831462
-0.043344926 -0.02923824 -0.021033196 -0.015316703 -0.030954646 -0.054863427 -0.06499639 -0.014807791
-0.035374742 0.029035907 -0.02916891 -0.018378302 4.8712463e-06 -0.063580275 0.021844083 -0.009474241
-0.019899525 -0.08382992 -0.07880623 -0.04979855 -0.0379516 -0.017610505 -0.011896201 0.023531267
-0.024832843 -0.023068553 0.03076293 -0.041190274 0.0017506848 -0.06623203 -0.06641596 -0.017627247
0.01645519 -0.026980823 -0.044793416 -0.046005283 -0.07905992 -0.04443145 -0.0027055142 -0.05287474
0.0017741839 0.0062640756 -0.052610945 -0.037759203 -0.04736856 0.01313527 -0.07598995 -0.011174277
-0.032940235 -0.048158623 -0.06784224 -0.06005963 -0.059231587 -0.018997677 0.017556408 -0.08604231
0.031897265 -0.045390762 -0.045065552 -0.042488568 -0.018658169 -0.01653317 -0.091011465 -0.006265142
0.027478559 -0.03465579 -0.008135553 -0.05228358 -0.0051259566 -9.805853e-05 0.012508236 -0.049691357
0.03247532 0.013251656 0.00031410108 -0.061685737 -0.08237077 -0.03978868 -0.06396396 -0.047805414
-0.07339868 0.026472056 -0.029524444 0.0039162245 -0.08295955 -0.056195498 -0.080574766 -0.023062175
-0.01916506 0.025650518 -0.03725087 -0.055679385 0.029573731 -0.056156762 -0.04770542 -0.021785809
0.0017288621 0.0079993745 -0.02749507 -0.018506505 -0.077967584 0.023339802 -0.0729938 0.008916124
-0.054126546 -0.06902641 -0.01310803 -0.04493565 -0.008474859 -0.04223798 0.0012232219 -0.07738887
-0.071249716 -0.018531986 -0.031810842 -0.048223265 0.02267197 -0.0467839 -0.0032087732 -0.050311066
-0.07741582 -0.07144203 0.01630261 -0.04802103 -0.0118087465 0.0043436876 -0.054721974 0.028044162
-0.04224105 -0.047094703 -0.05493392 -0.000741662 -0.03750782 -0.0210589 -0.051895406 -0.015816573
-0.035043985 0.020764554 -0.05737997 0.01611934 -0.03757571 -0.089077584 -0.052863933 -0.027981505

network.action_value.0.bias f4 [100]
00000000: 87e2 b2bd db12 37bd 5144 2bbd 8ebc 003d
00000010: 848a 703d b7c5 933c 689d 9cbb ed0e b03d
00000020: 9ee0 abbc f47a 453c d6d9 033d 581e 1a3c
00000030: 9c41 213d 3669 553d 8040 82bb c61d 283d
00000040: 002d 2ebd a4c2 23bd 1006 07bb 748a a4bd
00000050: b5c3 14bc 10eb a2bc 3c77 313d 0631 44bd
00000060: 2434 28bd 65ac d6bc 4b0d 213d 2510 9fbb
00000070: f860 9fbc 08d1 71bc 3ce1 dfbc c025 7fbc
00000080: 75b2 8bbd b0fb ce3d 7b09 1e3d afff c73c
00000090: eaa9 423d bf89 9f3c 290f 9e3d 32eb 37bd
000000a0: 38ee 54bd 5e7c 423d 87ca 263c f2e9 4d3c
000000b0: 02f9 ef3c 3faf cb3d 860e 4a3c 0331 84bd
000000c0: 2464 aebd 8217 9c3d 619b ac3d 7117 a63d
000000d0: 0ea5 a63d dc00 55bc 9410 f03c 71de c2bb
000000e0: 8cb0 fbbc 0734 36bd b05f 453b 0f33 bd3c
000000f0: f63a 103d a4a6 953d bfc7 cfbc 8850 523d
00000100: 1f85 80bd 9cd3 263c 0b84 47bd f72f 1b3d
00000110: 0a84 a13b 8c3c cd3c a60e 24bd ed97 c8bc
00000120: 6c23 bebc 82fd a93d eebb 3cbc c191 cf3c
00000130: 27a4 743b f015 e73c 3cc9 33bd 6f4d f4bc
00000140: 9a2c 09bd bba8 60bd 1f75 473c 8a90 05bd
00000150: 5588 88bd f09b 3b3c d0cc 153d 5b94 153d
00000160: a79c d8bc 403d ca3c 857b 923c c30b ca3d
00000170: 7c1e 303d b445 613c 74ed e63c 9dbf a9bc
00000180: dead 2f3d d72e c73d 3c01 e0bc 588a 723d
-0.08734613 -0.044695716 -0.0418132 0.03142982 0.05872585 0.018038614 -0.0047795065 0.08596597
-0.02098113 0.01205324 0.032190166 0.009406649 0.03936921 0.05210229 -0.003974974 0.04104402
-0.042523384 -0.039980546 -0.0020602979 -0.0803422 -0.009079863 -0.019887477 0.0433266 -0.047898315
-0.04106535 -0.026205251 0.039319318 -0.0048542195 -0.019455418 -0.01475931 -0.02732908 -0.015572965
-0.06821147 0.10106599 0.03858326 0.024413912 0.047525324 0.019474862 0.07717735 -0.044902034
-0.051984996 0.047481887 0.010180122 0.012567984 0.02929354 0.09945535 0.012332564 -0.06454661
-0.08515194 0.07621671 0.08428074 0.0810994 0.081369504 -0.013000693 0.02930478 -0.0059469272
-0.030723833 -0.04448321 0.0030116849 0.023095636 0.03521248 0.07307175 -0.025363801 0.05134633
-0.06275391 0.010182288 -0.04870991 0.03788754 0.0049290704 0.025053285 -0.040053032 -0.024486506
-0.02321025 0.08300306 -0.011519415 0.025338056 0.0037329288 0.028208703 -0.043893084 -0.02982208
-0.0334898 -0.054848414 0.01217392 -0.032608546 -0.06666628 0.011450753 0.036572278 0.036518436
-0.026441885 0.02468741 0.017881164 0.098655246 0.042997822 0.013749529 0.028189398 -0.020721251
0.042890422 0.09725731 -0.027344339 0.059213966

network.action_value.2.weight f4 [100, 100]
00000000: 8e3f 373d 3483 f9bc 748c 9d3c d6ea 0ebc
00000010: d892 9fbd 77ad d53b 21d5 083d d69e 34bd
00000020: fdc3 1ebd bb4a cdbd 5bbb b23d aa0b 063d
00000030: c296 aabd fd8b cabd a5ed cbbd 8479 08bd
00000040: 08bf 8cbc cbbe a03d 40c4 0dbb 67bb c73d
00000050: 75e3 c33d 22d0 3c3d 06e3 433d e8c3 d2bc
00000060: 50bf 5e3c b777 1cbd 9f52 9abd 32c6 383d
00000070: 9ab2 593d fdea f93c 9a92 5b3d 11ac 993d
00000080: 809e 123c 70aa 783d 1875 ebbc 0d37 98bd
00000090: 305a 0fbc 13ce 943d c643 c3ba b010 5bbd
000000a0: cdd6 36bd bb64 0b3c 4f97 dfbd 2832 533d
000000b0: fbe2 a1bd 085e 093c c348 cabd a0af a13b
000000c0: 46f4 1e3d 234c e2bc b1c8 03bb e9ae f6bd
000000d0: 601a ecbd 4595 bebd f00a 8fbd 2044 c8bc
000000e0: 7479 b0bc 29a9 a73d c154 cb3d edaa ae3d
000000f0: b922 cc3d 6bbc dc3c a044 88bc 7089 5cbd
00000100: 5403 cd3c b0ce 0ebc 2eb5 223d 0e7d a7bd
00000110: 0eaf e5bd 819d 863d e863 48bc aa76 603d
00000120: 9201 cfbd 7da3 aa3b cec4 3a3d 105d 50bc
00000130: 54bf cbbc e925 bb3d 2c17 d8bc c02f 6c3b
00000140: b07a b93b e816 3fbc e12b 9b3d 322b 94bd
00000150: 4d01 9ebd 16d8 603d fbb6 c2bd 28aa f4bc
00000160: 68cc 243c 4af1 c6bd 30c0 63bc 2989 893d
00000170: 6857 8f3c 0767 ecbd 0208 633d 8f62 683d
00000180: 94a7 9fbc f296 c03c c0d4 69bd 720e e9bd
00000190: 1511 083d af51 f0bc f0a1 383c 8a45 163d
000001a0: 696c bb3d 55b9 983d 1726 7abc e883 89bd
000001b0: 2714 923d 4001 dbbc 7fea 543d b43f 1f3d
000001c0: 05a0 c4bd 70e6 3d3c 2cf5 ae3c 38fe f4bc
000001d0: e70b 41bd 0251 c9bd 00ec 84bc b1c9 b6bc
000001e0: 639e a4bd 9cec efbd 1ec8 4d3d 5882 613d
000001f0: 09db 95bd 422b 253d 3a36 dcbd e9e7 6e3d
00000200: dc45 79bd 69af c5bd 9095 403c 1ddc 743b
00000210: a026 f03b a5de a2bd cff9 ab3d f46e 543d
00000220: 3adc 79bd 470c afbd dda0 6abd 5062 0b3d
00000230: c780 213d 6c33 8abc 568f 603d da9c 253d
00000240: 78e7 88bd c685 a0bd ce6f a13c 5ff2 9cb9
00000250: a1c0 a7bd a0b9 c13b 3216 4a3d e082 783c
00000260: 56e9 6bbc 12cd 5f3d 9804 523c 6ad4 1fbc
00000270: 497d 9a3c 7d58 2cbd ec6f 16bd 418d 80bd
00000280: 6e9f aabd c099 03bc d011 17bc e6b6 703d
00000290: 3e54 3abd 4c8b 1bbd 8841 c2bc 044e 23bd
000002a0: ff2f 4f3d 8621 3dbc d4b1 f63c efcd 963d
000002b0: 4323 5fbd 3f75 e4bd 72c4 133d 17ed 23bd
000002c0: 02fa 2b3d 02a4 883d 40be f0bc a14e 8e3d
000002d0: d8ba e8bc 40ef a0bc 03de dbbd 28c0 89bc
000002e0: 2106 5e3d f733 3fbd d48b 7c3d e43e f03c
000002f0: 744c f63c 4116 75bc 98cc acbc 35aa 993c
00000300: d179 903d 6aac 333d c4c0 1d3c d029 3c3c
00000310: 306a 293c c3a2 4ebd c148 09bd c54e 0a3d
00000320: 33d8 cbbd 840b 0fbd 240b 4c3d 0512 133d
00000330: 231f 8f3d 2b9e 28bc 227f 573d eb41 9dbd
00000340: d606 9e3d f6b6 203d fb19 84bd 467d e9bd
00000350: 19e6 b7bc 7bbd 8a3d 366b 4d3d ef9d b53d
00000360: 70f3 76bc 2450 da3c 9077 2ebd 8fb2 503c
00000370: e640 163d 367e e03d d99c b53d ae92 d6bd
00000380: 2f97 b43c 222e 283d 278b 1bbd 12a2 883c
00000390: 3852 6d3d 9ceb 303d f57e c6bd 4c97 d4bb
000003a0: b902 af3d a16f be3d b8f2 45bd 809a c1bd
000003b0: a4b4 08bd 5511 08be 9607 b8bd 01ac 283d
000003c0: 8d1b 37bd 769b 23bc 33e5 f6bb 11e9 89bd
000003d0: f27c 87bd 47cc 51bd 49e9 0cbc da02 4b3d
000003e0: e084 c4bd 4547 9fbc 5bbf 4c3d 0790 01be
000003f0: 31df 453d 661e 6d3d eaf5 3ebc 4333 c73c
0.044738345 -0.03045807 0.019232012 -0.008722981 -0.0779168 0.0065209228 0.03340638 -0.04409679
-0.038761128 -0.10024019 0.087271415 0.032725967 -0.08329536 -0.09889982 -0.099574365 -0.03331901
-0.017180935 0.07848891 -0.0021631867 0.09752541 0.09564868 0.04609693 0.04782393 -0.025728181
0.013595417 -0.038200106 -0.0753529 0.04511089 0.053148843 0.030507559 0.053606607 0.07503522
0.008948922 0.060709417 -0.028742358 -0.07432375 -0.00874953 0.07265868 -0.0014897517 -0.05348271
-0.044638444 0.008507903 -0.10917532 0.051561505 -0.07904621 0.008384235 -0.098771594 0.004934266
0.038807176 -0.027624195 -0.0020108635 -0.1204508 -0.11528468 -0.09305815 -0.06984508 -0.024446547
-0.021542288 0.081865616 0.09928275 0.08528695 0.0996756 0.026945313 -0.016634285 -0.053842008
0.025026001 -0.00871627 0.039723568 -0.08178149 -0.1121503 0.0657301 -0.012230851 0.054800667
-0.101077214 0.0052074776 0.045597844 -0.0127175 -0.024871506 0.0913809 -0.026378237 0.0036039203
0.0056603774 -0.011663176 0.075767286 -0.07234801 -0.07715092 0.054893576 -0.09507557 -0.029866293
0.0100585 -0.09713991 -0.013900802 0.06715614 0.017497733 -0.115430884 0.05542756 0.056734618
-0.019489087 0.023509476 -0.05708766 -0.11379708 0.033219416 -0.029335825 0.011269078 0.03668741
0.09151537 0.07457224 -0.01526787 -0.06714612 0.0713275 -0.026733994 0.051981445 0.03887911
-0.09600834 0.011590585 0.021357141 -0.029906377 -0.04713049 -0.09829904 -0.016225815 -0.02231297
-0.08038022 -0.117150515 0.050239675 0.055055946 -0.07317168 0.040324457 -0.107525304 0.058326636
-0.06085764 -0.096525975 0.0117544085 0.0037362643 0.007328823 -0.07952622 0.083972566 0.051863626
-0.06100104 -0.085472636 -0.057282317 0.034029305 0.039429452 -0.016870223 0.054824196 0.04043279
-0.06684774 -0.07838015 0.019706633 -0.0002993522 -0.08191038 0.005912021 0.049337573 0.015167922
-0.014398893 0.05463893 0.012818478 -0.009755233 0.018858569 -0.042076577 -0.03672783 -0.06276942
-0.0833119 -0.008032262 -0.009220555 0.058768176 -0.045490496 -0.03797464 -0.023712888 -0.039869323
0.050582882 -0.011543637 0.030114092 0.073634975 -0.054476988 -0.111551754 0.036076017 -0.04002103
0.041986473 0.06671907 -0.029387593 0.06948591 -0.028409407 -0.019645333 -0.10735705 -0.01681526
0.054205064 -0.046680417 0.061656788 0.029326864 0.030065753 -0.014958919 -0.021093652 0.018757919
0.07054485 0.0438656 0.009628478 0.011484578 0.0103402585 -0.05044819 -0.03351665 0.033766527
-0.09953346 -0.03492309 0.049815312 0.035905857 0.06988361 -0.010291616 0.052611478 -0.076785885
0.077161476 0.039236985 -0.06450268 -0.11400847 -0.022448586 0.06774422 0.050151072 0.08868014
-0.015072688 0.026649542 -0.042594492 0.012737884 0.036682986 0.10961573 0.08867807 -0.10477196
0.022044746 0.04105962 -0.037974503 0.016678844 0.057939738 0.043193445 -0.09692184 -0.0064877626
0.08545441 0.09298635 -0.048327178 -0.09453297 -0.033375397 -0.13287862 -0.08985822 0.04117966
-0.04470401 -0.009985795 -0.007534647 -0.06733907 -0.06615628 -0.051220205 -0.008600541 0.049563266
-0.095956564 -0.019443164 0.04998718 -0.12652598 0.048308555 0.05789032 -0.01165531 0.024316436

network.action_value.2.bias f4 [100]
00000000: 08e7 dbbd c04a 2fbd 2e31 c3bd 80f9 743d
00000010: 1f59 eabd 2197 e4bc 8d8a cbbc 51ec ea3d
00000020: b81b 92bd 5103 de3c 1d5c ad3d 536f b13d
00000030: c673 8dbd cb72 ae3d c4be 80bd a654 9fbd
00000040: 4026 71bd 2a82 303d c0a8 253d f734 89bc
00000050: 0759 983d 9355 e13d acf1 353d e092 ffbc
00000060: 20e1 9ebd e9f3 06bd ab05 d33d b5aa d8bd
00000070: fa56 04bd 581f 923c 0193 133e 31db e33c
00000080: 3200 183d 3a10 6dbd 1f58 9e3d 84e1 d03c
00000090: 2fe0 12bc 6a6c ccbd 4839 ccbb 2dd7 873d
000000a0: bbbc 803d da39 503d a589 85bd 7b4a 933d
000000b0: 09f0 96bc 2b18 443d 8bee 70bd 35c1 9a3d
000000c0: 4a85 083d 5e39 83bd c9b6 843d a2e9 103e
000000d0: 113f 59bd 735d db3c f0ba 503c 219b 5ebd
000000e0: 4c56 b53d 09e5 4b3d e96c bd3d f569 063e
000000f0: c02e 9eba 4715 eebd c9be 843d fc85 413d
00000100: a3fc a73d fe97 8f3d b712 d2bc 19dc a2bc
00000110: 8d9f 94bd 8d52 9bbd 523b 853c c84f 503d
00000120: 83af dd3c 8877 7cbd adad d1bc 7f34 04be
00000130: ced3 823c 18cf 073e 4488 aabd fb87 3cbd
00000140: c3d5 21bd 90f0 f6bc f40d a4bc 3de6 e13d
00000150: 6b6a 00be c022 a9ba a86a 0abd e583 cabd
00000160: da7a b23c 7c9a 983d 6675 50b9 9784 34bd
00000170: aa5f b9bd 4604 a73d 4860 b1bb b61c 00bd
00000180: f940 c7bd 30be b63d 75c1 9dbd 08ed b2bc
-0.10737425 -0.042795897 -0.09530865 0.059808254 -0.1144278 -0.027904095 -0.02484634 0.11470855
-0.07134193 0.02710119 0.08464835 0.086638115 -0.06906848 0.08517989 -0.06286386 -0.07779817
-0.05887437 0.043092884 0.040444136 -0.016748888 0.074388556 0.1100265 0.04441993 -0.031197965
-0.07757783 -0.032947455 0.103038155 -0.10579435 -0.03230951 0.017837211 0.14411546 0.02781448
0.03710956 -0.057876803 0.077316515 0.02549816 -0.008964582 -0.09981616 -0.0062324144 0.066328384
0.062859975 0.05083642 -0.06520394 0.071919404 -0.018425005 0.04787461 -0.058821242 0.075563826
0.03333024 -0.06407426 0.06480176 0.14151624 -0.05303866 0.026777958 0.012739882 -0.05434716
0.088543504 0.04977897 0.092492886 0.13126357 -0.0012068376 -0.11625152 0.06481702 0.047246918
0.082024835 0.07011412 -0.02564369 -0.019880341 -0.072569944 -0.07584105 0.016263638 0.050857335
0.02706123 -0.06163743 -0.02559551 -0.1291065 0.015970137 0.13262594 -0.08326772 -0.04602812
-0.0395105 -0.030144006 -0.020026185 0.110302426 -0.12540595 -0.0012904033 -0.03379312 -0.09888438
0.021787096 0.074513406 -0.0001988016 -0.04407176 -0.090514496 0.08155112 -0.005413089 -0.03127738
-0.097291894 0.08922994 -0.077029146 -0.021841541

network.action_value.4.weight f4 [25, 100]
00000000: 6ab8 94bb dfc7 823c 824f 963c de88 4c3d
00000010: 7dd2 2fbd bcd8 a23d 754c ef3c 0c32 96bd
00000020: 888c eebc f9b9 123c a77c a6bc 3403 b83c
00000030: 5c4d cabc 1b7a 7f3d d030 a13d 94d1 7dbd
00000040: 00c0 513b b433 f53c a067 dbbd 9c03 a2bd
00000050: ce0d 2ebd 95b6 823d deb5 b6bc cf69 59bd
00000060: fdf6 c53d f63a bcbd 216a 393d d12f e93c
00000070: 50b8 2bbd 097d 25bd 5533 c0bd c30c 0b3d
00000080: 68de ab3d cdac 87bc 02c5 a1bd ea0b 93bd
00000090: 00eb 963d 90cf 333c e5c2 963d 9511 163d
000000a0: 228b 3c3d c14f be3d 1262 2c3d 2031 bc3b
000000b0: 74eb b43d 3fac 893d cb50 8b3c a829 8b3c
000000c0: 1373 933d 6066 803d e2f5 563d 874a b2bd
000000d0: 6dca 993c 4e10 c63d 0098 d7b9 21bc 9b3c
000000e0: 02e9 e7bd 7ff5 e63b 30b7 90bb fb9d 5fbc
000000f0: d0a6 93bd 14e6 10bd 22c1 173d a261 263d
00000100: 2682 dc3c eedd a93b b82a 83bd 3879 363c
00000110: ead6 45bd 23ca 45bd 66d5 c53d c3b9 87bd
00000120: 87f9 ea3c c0d0 9b3d b7d4 8fbd aa6c cc3d
00000130: 4422 bd3a 10f4 acbd 0470 b7bc d79e 8e3d
00000140: 057d 02bd e83e 7f3d 97b8 e1bd 9a8f 913d
00000150: b148 ff3d d2fd 0b3d 7d5b 2c3d e168 2f3c
00000160: 45b1 a43c 5ef9 d83d 00fe c43d 51df b93d
00000170: 40ef b13a 1017 fdb9 07e4 41bc a059 14bb
00000180: 95cf 3d3d 2dbc 27bd 5452 a33c 0828 9fbc
00000190: f447 e4bd c110 3dbd 471e 39bd b598 9a3d
000001a0: d117 7abd 207d 5cbd 9085 04bd a996 8abc
000001b0: 88ca b43c 77bd b6bd d550 8fbd d8ce c13c
000001c0: 0380 a7bd 1dbd ef3c fa8c 9e3d 17d9 e9bd
000001d0: 5420 c33c 2087 eebb 43c3 a1bd e899 84bb
000001e0: c28e 1c3d 8eaf 613d 0315 17bc 297f e3bd
000001f0: fc9f 0cbd 6f17 ef3c 5436 28bd 4b0b de3c
00000200: 38be c63c 8cf9 12bd 3c6d cebd 0656 4abd
00000210: b68f 053d 5c88 81bc 8169 aa3d e49a 293d
00000220: 6fb4 593d 468e b9bd d38f 8ebd 333e 193d
00000230: 0e00 7e3d f6b1 523d d3d1 a1bd 60a0 2ebd
00000240: 38d7 9b3d 9339 b2bd 3abb 9c3b 50aa 403c
00000250: 90ef 693c 023e 96bc 1524 10bd 3b61 ea3c
00000260: 522d d5bb 2c4d cabc 9bb8 ccbd d0b4 493c
00000270: 9e06 96bd 1c62 c5bd 5447 03bd 5d18 d6bd
00000280: c055 96bc c20d aebd 9aff 383d 8fdc 583d
00000290: dd5b 06be f48c 7dbc 3a64 c63d 7cd6 e4bd
000002a0: b452 c33c d439 c6bc af0e 023d df77 4a3d
000002b0: edfd edbd 2a5b b1bd fcc6 bd3c 124c a3bc
000002c0: 1685 993b d94e d8bc 2357 40bc 3356 3d3b
000002d0: dbfd 56bd df0d acbd be5c bbbd f413 89bd
000002e0: ee17 ebbc 91ee c53d 03ff eebb f6b7 e13c
000002f0: c24b 8ebd f1c1 233c d245 393d 4234 a1bd
00000300: 6cf9 ecbc 8aed 7dbd 575c 883d 0354 953d
00000310: ce69 763c 3c27 5dbd 6c3c a83c 62a4 143d
00000320: 76b7 5b3d b02c 81bb 82f8 18bd a9d8 f3bd
00000330: 2666 cebc e889 81bc 6fe4 32bd 0c7c 0cbd
00000340: bc15 d63c c26a a6bc ed99 fbbc ed79 ad3d
00000350: 1a8b 31bd 099c 96bd 0d49 3fbd f83b 03bb
00000360: e366 c13d 2e15 183d 0c2f 12be bed5 9d3b
00000370: 44b2 d9bc 4970 8c3d d1c7 fbbd 256b 363c
00000380: 2e59 493d 714d 543b 310b cdbc 0173 f23c
00000390: ac73 993c 50f7 b4bd ed43 c4bd 85c6 e8bd
000003a0: b86a 47bd 2c9b 9e3d 3dc7 29bd f8de f0bc
000003b0: 6372 5b3d 79d1 86bc 68a7 1a3d e678 b03c
000003c0: d340 833d 984f 07bc 2815 a8bc 61e6 9f3d
000003d0: e332 8abc 8a6d 31bd 2657 8f3d ec32 af3c
000003e0: 40f0 7cbc 5468 733a 9558 b4bd ccf0 63bd
000003f0: e10b 1a3d 6bad 463c c945 b63d 019e 943b
-0.0045385854 0.015964447 0.01834846 0.049935214 -0.042925347 0.07951495 0.029211262 -0.073337644
-0.029119745 0.008955472 -0.02032311 0.022462465 -0.024695091 0.06237231 0.07870638 -0.061967447
0.003200531 0.02993188 -0.10713124 -0.07910845 -0.042493634 0.06382481 -0.022303518 -0.053079423
0.0966625 -0.091909334 0.045267228 0.028465183 -0.04192382 -0.040402446 -0.09384791 0.033947717
0.0839203 -0.01656189 -0.078989044 -0.07180007 0.073690414 0.01097478 0.07361392 0.03663786
0.046031125 0.092925556 0.042085715 0.005743161 0.088339716 0.067223065 0.017006299 0.016987637
0.07199683 0.062695265 0.052480586 -0.08705621 0.018773282 0.096710786 -0.00041121244 0.019010605
-0.113237396 0.0070483084 -0.004416369 -0.013648505 -0.07209551 -0.03537567 0.03704942 0.040620454
0.026917528 0.005183927 -0.06404632 0.011137299 -0.04830066 -0.048288476 0.09659843 -0.06627228
0.028683437 0.07608175 -0.07022994 0.099816635 0.0014429768 -0.08444989 -0.02239228 0.0696389
-0.03185751 0.06231585 -0.11021536 0.07107468 0.12465037 0.03417761 0.042079438 0.010706157
0.02010406 0.10594438 0.09618759 0.09075797 0.001357533 -0.00048273103 -0.011834151 -0.0022636428
0.046340544 -0.040950943 0.019936718 -0.019428268 -0.111465365 -0.046158556 -0.04519489 0.07548658
-0.06105787 -0.053830266 -0.032353938 -0.016917543 0.02206923 -0.08922856 -0.06997839 0.023658201
-0.08178713 0.02926498 0.07741733 -0.1141836 0.023819126 -0.0072792917 -0.07898571 -0.0040466674
0.038222082 0.055099063 -0.009221318 -0.11108238 -0.03433226 0.029185979 -0.041067436 0.027104994
0.024260625 -0.035882518 -0.100794286 -0.049398445 0.032607757 -0.015812092 0.083209045 0.04140748
0.05315059 -0.0906034 -0.06961026 0.037412833 0.06201177 0.051439248 -0.07901349 -0.042633414
0.07609409 -0.08702388 0.0047830613 0.011759356 0.014278308 -0.018340115 -0.03519066 0.028610816
-0.0065056467 -0.024695002 -0.09996148 0.012311175 -0.07325481 -0.096378535 -0.032050446 -0.10453866
-0.018351436 -0.08498718 0.045165636 0.052944716 -0.1312098 -0.0154755 0.096870854 -0.11173722
0.023843147 -0.024197496 0.031752285 0.049430724 -0.11620698 -0.08659966 0.023166172 -0.019933734
0.0046850545 -0.026404785 -0.011739525 0.002889049 -0.05248819 -0.08401083 -0.091485485 -0.06693259
-0.028697934 0.096646436 -0.0072935834 0.02755354 -0.069480434 0.00999497 0.0452326 -0.078712955
-0.028927527 -0.061994113 0.066582374 0.072914146 0.015039874 -0.053992495 0.020536624 0.03628958
0.05364176 -0.0039420947 -0.03734637 -0.11906559 -0.025195193 -0.01581283 -0.043674883 -0.034297988
0.02613341 -0.020314578 -0.030713046 0.08470521 -0.04334555 -0.0735398 -0.046700526 -0.0020024758
0.09443452 0.037129574 -0.1427576 0.00481674 -0.026574261 0.06857354 -0.12293971 0.011133944
0.049157314 0.0032394791 -0.02502975 0.029595854 0.018731914 -0.088362336 -0.09583268 -0.113659896
-0.04868576 0.077444404 -0.041449774 -0.029403195 0.053575885 -0.016457306 0.037757307 0.021542024
0.064088486 -0.008258723 -0.0205179 0.07807613 -0.016869968 -0.043317355 0.06999044 0.021386586
-0.015438139 0.00092852605 -0.08805958 -0.055649564 0.037608985 0.012126307 0.08900029 0.004535437

network.action_value.4.bias f4 [25]
00000000: 14ed d43d 9afc 3dbd 81d1 dabd 6736 8ebd
00000010: ac2c f9bd 817b af3c 45b3 113c cff2 5e3d
00000020: 90e7 df3d 249b 9cbd b25b a4bd 34a6 9d3d
00000030: c11b 0cbd 27b6 3d3d 7fb2 df3b 5a45 d83b
00000040: 7037 0f3d 595c 103e 42e3 19bd 4eff 1cbd
00000050: 75a1 7dbd 5eef 9cbd c4a7 87bd 7f79 f4bb
00000060: 6db7 6ebd
0.103967816 -0.046383478 -0.10684491 -0.0694397 -0.121667236 0.021421196 0.008892839 0.05443078
0.10932839 -0.07646778 -0.08025302 0.07697716 -0.034206156 0.046316292 0.0068266983 0.006600064
0.03496498 0.14097728 -0.037570246 -0.038329415 -0.061921556 -0.07662843 -0.06623796 -0.0074607725
-0.058280397
