A2/pg_trainer_metadrive_easy.pt (torch, 151100 bytes, 6 tensors)

network.action_value.0.weight f4 [100, 259]
-0.0006975343 0.041745417 -0.011311798 0.03183365 0.054346737 0.02548351 -0.0029367707 -0.005613668
0.04738472 0.0004081416 0.039298207 -0.057868958 0.018617416 0.0054491134 0.01974684 -0.022052787
0.046517946 -0.00048678461 0.033653527 0.029811278 -0.012206548 -0.05195601 -0.043538664 0.01901576
-0.035040442 -0.055007417 -0.03829575 4.765844e-05 0.037680943 0.01620546 0.03787745 0.014108477
-0.022376701 -0.038730502 -0.06565135 -0.058745913 0.0024123993 0.0023322755 -0.005164604 -0.012720504
0.01857198 -0.06976594 -0.004045206 -0.028383099 0.01597184 -0.03931972 0.021663941 -0.06432536
-0.03179264 0.019831777 -0.008811351 0.026274327 0.02649584 0.045342516 -0.0018793524 0.050733265
-0.00194225 -0.03850029 0.015984304 0.0346951 -0.02622255 0.017616145 -0.0039208103 0.010836873
0.033888865 -0.019607972 -0.024370741 -0.029862951 -0.056214955 -0.062280525 0.012143424 0.031052006
0.022174262 -0.043321326 -0.013197677 0.016097523 -0.027179033 -0.057093885 -0.049882356 0.024563044
-0.02244556 -0.017571913 -0.02465852 -0.02697846 0.012232332 -0.040527564 0.050484035 0.040462863
0.04645407 0.048599858 0.016849048 -0.053479444 0.022901684 0.028012762 -0.0074685393 0.046430867
0.020429395 0.030359592 0.0032882595 -0.044324603 -0.0671583 0.017159566 -0.020388095 -0.004759151
-0.03803586 0.002505561 -0.056625415 0.047147837 -0.017520282 -0.056103386 0.026206028 -0.0015098855
0.010088007 -0.06651572 -0.06706489 -0.048301075 -0.056380168 -0.04965106 -0.020124298 0.042107966
0.021939695 0.01518765 0.01678864 -0.02801866 0.035246577 -0.031314097 -0.011701614 0.029350946
-0.016993891 -0.026318971 -0.069521666 -0.037586085 0.015906312 2.4706715e-06 0.050886173 0.03281131
0.024147816 -0.0065494953 0.0075586154 -0.05382138 -0.029538587 0.01335819 0.035262387 0.053996075
0.0041415724 -0.0032971075 0.03168792 -0.01413382 0.020502716 0.0002608345 -0.027773153 -0.02536983
-0.033827625 -0.060236905 0.014085425 -0.048500393 0.023120701 -0.021316206 -0.020954078 0.05117004
0.0041687596 -0.0575495 0.025315776 0.029239992 0.03247473 -0.024021227 0.009274857 -0.009253376
0.033027116 -0.040686052 -0.025002554 -0.03322333 -0.06435028 0.03215186 0.038862508 -0.04955927
-0.047161434 0.03907514 0.041892674 0.021007314 0.0347148 -0.028169464 0.046176273 0.05177759
0.0061701196 -0.06095098 0.032826494 -0.028650243 -0.04799853 -0.055092793 0.026498128 -0.016052866
-0.066489466 0.008253368 -0.02104781 -0.017862393 -0.03775395 -0.03617193 0.015061236 0.01653336
0.0058010626 -0.027037326 -0.028131556 0.04348016 -0.042863768 0.041713636 -0.0065863384 0.051092733
-0.06844032 -0.0645257 -0.02207603 -0.014194144 -0.027050696 -0.005011994 0.049590137 0.043437455
-0.023559522 -0.013925994 -0.031040914 -0.031264495 -0.03192268 -0.018227525 -0.029582504 -0.059511993
0.042187233 0.019169636 -0.05803744 0.044002946 0.03586835 0.02882709 -0.02103618 -0.068520464
0.0052000987 -0.05041102 0.027694399 -0.01756923 -0.04643206 -0.0371117 -0.017308656 -0.040085785
0.016521499 0.012246875 0.026427139 -0.06841236 -0.035884738 0.021809496 -0.027788263 -0.013198672
-0.054046202 0.04756671 0.012473813 0.043245524 -0.065275066 -0.00020705018 0.042411998 -0.02464667
00000000: bcda 36ba 3efd 2a3d 1f55 39bc 0064 023d
00000010: af9a 5e3d cbc2 d03c d676 40bb dcf2 b7bb
00000020: 7b16 423d d7fb d539 28f7 203d 0008 6dbd
00000030: 8d83 983c 7a8e b23b 20c4 a13c 0ca8 b4bc
00000040: 9a89 3e3d 2037 ffb9 48d8 093d c836 f43c
00000050: f9fd 47bc d3cf 54bd 9955 32bd f0c6 9b3c
00000060: 9186 0fbd 754f 61bd 01dc 1cbd dce4 4738
00000070: 5557 1a3d 50c1 843c 6325 1b3d 3e27 673c
00000080: 584f b7bc e0a3 1ebd 3774 86bd 8e9f 70bd
00000090: 5819 1e3b 17d9 183b d73b a9bb a969 50bc
000000a0: 4424 983c 72e1 8ebd a68d 84bb ac83 e8bc
000000b0: 60d7 823c b70d 21bd 9478 b13c 04bd 83bd
000000c0: 0039 02bd 4076 a23c 7c5d 10bc 423d d73c
000000d0: ce0d d93c 13b9 393d 9a54 f6ba afcd 4f3d
000000e0: 1893 feba 7bb2 1dbd 84f1 823c 731c 0e3d
000000f0: acd0 d6bc bc4f 903c 247a 80bb 248d 313c
00000100: 0dcf 0a3d e6a0 a0bc 26a5 c7bc 26a3 f4bc
00000110: a741 66bd dd19 7fbd 36f5 463c c760 fe3c
00000120: cca6 b53c b471 31bd 123b 58bc f4de 833c
00000130: 90a6 debc 47db 69bd 7151 4cbd 7038 c93c
00000140: c0df b7bc f9f2 8fbc aa00 cabc ee01 ddbc
00000150: 1e6a 483c 3b00 26bd 59c8 4e3d 63bc 253d
00000160: 9f46 3e3d a510 473d 0407 8a3c 430d 5bbd
00000170: 509c bb3c 057b e53c a6ba f4bb 4b2e 3e3d
00000180: 8c5b a73c aeb4 f83c d77f 573b b78d 35bd
00000190: 4a8a 89bd 3892 8c3c ef04 a7bc a7f2 9bbb
000001a0: 7dcb 1bbd 5734 243b 0df0 67bd 171e 413d
000001b0: b286 8fbc aacc 65bd 06ae d63c 5ae7 c5ba
000001c0: 2b48 253c 6539 88bd 5159 89bd 59d7 45bd
000001d0: e4ee 66bd e95e 4bbd b6db a4bc 6779 2c3d
000001e0: e0ba b33c 9fd5 783c 5488 893c 6487 e5bc
000001f0: b75e 103d 3643 00bd 20b8 3fbc 6571 f03c
00000200: c636 8bbc e29a d7bc 6061 8ebd def3 19bd
00000210: f44d 823c d0cd 2536 056e 503d 2765 063d
00000220: a4d1 c53c 269d d6bb 43ae f73b cf73 5cbd
00000230: e8fa f1bc 4fdc 5a3c 4b6f 103d fd2a 5d3d
00000240: 07b6 873b 4914 58bb 31cb 013d 8a91 67bc
00000250: 50f5 a73c 9dc0 8839 8684 e3bc 64d4 cfbc
00000260: d68e 0abd f9ba 76bd 8ec6 663c 59a8 46bd
00000270: a067 bd3c 539f aebc e3a7 abbc ad97 513d
00000280: 179a 883b 06b9 6bbd 0863 cf3c b588 ef3c
00000290: 3904 053d 2ac8 c4bc 92f5 173c 799b 17bc
000002a0: 7147 073d 6ba6 26bd 28d2 ccbc 3015 08bd
000002b0: 14ca 83bd abb1 033d 4b2e 1f3d a9fe 4abd
000002c0: 592c 41bd 410d 203d a797 2b3d 8817 ac3c
000002d0: 1b31 0e3d a6c3 e6bc 5523 3d3d bd14 543d
000002e0: b72e ca3b bca7 79bd 1375 063d eab3 eabc
000002f0: 1b9a 44bd fba8 61bd 9a12 d93c 4d81 83bc
00000300: a12b 88bd 2239 073c 756c acbc 2754 92bc
00000310: e3a3 1abd 0529 14bd 67c3 763c f870 873c
00000320: d716 be3b 627d ddbc 2674 e6bc 4118 323d
00000330: eb91 2fbd ebdb 2a3d 36d2 d7bb 9d46 513d
00000340: 702a 8cbd 0d26 84bd cad8 b4bc 8e8e 68bc
00000350: 6c99 ddbc a73b a4bb 071f 4b3d 79eb 313d
00000360: e6ff c0bc da29 64bc 8449 febc 330f 00bd
00000370: 5bc1 02bd e451 95bc 0257 f2bc d9c2 73bd
00000380: 85cc 2c3d a409 9d3c abb8 6dbd 6f3c 343d
00000390: b1ea 123d ca26 ec3c 1154 acbc 7554 8cbd
000003a0: 9765 aa3b c97b 4ebd 5ddf e23c 59ed 8fbc
000003b0: 8b2f 3ebd 7002 18bd e2ca 8dbc fe30 24bd
000003c0: 1858 873c 1ea7 483c ba7d d83c c81b 8cbd
000003d0: e0fb 12bd d4a9 b23c 36a4 e3bc 3e3f 58bc
000003e0: 8d5f 5dbd 4fd5 423d f75e 4c3c 3822 313d
000003f0: efae 85bd 9c1b 59b9 34b8 2d3d d0e7 c9bc

network.action_value.0.bias f4 [100]
-0.056473076 -0.0033887797 -0.038751993 -0.054269686 -0.055803925 0.042480018 -0.04439775 0.04885539
0.059109665 -0.020101713 -0.0009435991 -0.021040166 -0.059901807 0.021159304 0.071519844 -0.037696406
0.055984627 0.011998675 -0.058955353 0.03877569 -0.011047967 -0.010978255 -0.026988812 0.035606038
0.011828814 0.039335214 -0.025576692 -0.058996946 0.010182651 0.04769405 -0.019765723 -0.03430219
0.02076108 0.05229349 -0.009437488 0.030817918 -0.016177507 0.055768434 -0.023283402 -0.018555518
-0.06174125 -0.027581997 0.03440231 -0.01855467 -0.06793022 -0.030996345 0.031297445 0.050523315
-0.020496584 -0.037977222 -0.025285102 0.008304922 -0.014446941 0.049809724 -0.060593016 0.05243079
0.049481157 0.041538738 -0.017953813 -0.040646266 0.01799725 0.062897235 0.014468446 -0.050023463
0.07103974 0.00058651273 -0.037094716 -0.0010830994 -0.023344632 0.0012213262 0.034967694 -0.05997182
0.0024547772 -0.045372594 0.01350369 0.04259047 -0.0275179 0.0012041116 0.011427209 -0.023203762
-0.031486787 -0.008089111 0.07804849 0.0110597685 0.04869806 -0.001332459 0.049014866 0.0176374
0.03024055 -0.06644377 0.028274827 0.017722469 0.0057352893 0.031603433 -0.039350595 0.054551452
-0.012739932 0.07453096 0.018276624 -0.042368397
00000000: 5050 67bd 4a16 5ebb 69ba 1ebd e449 5ebd
00000010: a892 64bd 87ff 2d3d 6ada 35bd 971c 483d
00000020: fa1c 723d 59ac a4bc dd5b 77ba 6d5c acbc
00000030: 995b 75bd 4756 ad3c ff78 923d 8c67 1abd
00000040: 2350 653d 1796 443c 2b7b 71bd 42d3 1e3d
00000050: 8802 35bc 24de 33bc a417 ddbc a3d7 113d
00000060: a4cd 413c f61d 213d 3686 d1bc c8a6 71bd
00000070: 22d5 263c d65a 433d baeb a1bc 7480 0cbd
00000080: 2413 aa3c b331 563d b29f 1abc dc75 fc3c
00000090: b186 84bc 716d 643d d5bc bebc be01 98bc
000000a0: 65e4 7cbd a4f3 e1bc 70e9 0c3d f7ff 97bc
000000b0: 001f 8bbd 0cec fdbc c031 003d 89f1 4e3d
000000c0: 74e8 a7bc 018e 1bbd b422 cfbc 5e11 083c
000000d0: ddb2 6cbc 4805 4c3d 6230 78bd abc1 563d
000000e0: c1ac 4a3d 8624 2a3d e013 93bc b37c 26bd
000000f0: f86e 933c 44d0 803d 100d 6d3c 67e5 4cbd
00000100: 497d 913d 34c0 193a a1f0 17bd c9f6 8dba
00000110: 3e3d bfbc e814 a03a 493a 0f3d 03a5 75bd
00000120: 54e0 203b 9dd8 39bd 953e 5d3c 5873 2e3d
00000130: 386d e1bc 48d3 9d3a 3039 3b3c d115 bebc
00000140: 4af8 00bd 3188 04bc e3d7 9f3d 0834 353c
00000150: 9e77 473d e8a5 aeba d0c3 483d 4f7c 903c
00000160: 08bb f73c ac13 88bd 9ca0 e73c b62e 913c
00000170: 18ef bb3b 9a72 013d 172e 21bd 5871 5f3d
00000180: 26bb 50bc b0a3 983d dcb8 953c 7c8a 2dbd

network.action_value.2.weight f4 [100, 100]
0.05980586 -0.02756141 -0.048144747 -0.076535985 -0.04667806 -0.06361431 0.050877072 -0.022473099
0.08460123 -0.07610513 -0.062621914 0.005232542 -0.005224742 -0.090616666 0.024334887 0.0391938
-0.021471689 -0.027575634 0.0530716 -0.07955266 -0.037262857 0.049885787 0.04811909 0.03714641
0.021478478 -0.0053637633 0.06638845 0.057082247 0.05011437 -0.02173543 -0.023427887 0.01619498
0.018178418 0.0852777 -0.012545635 0.08344776 -0.030493043 -0.09951074 0.089469045 -0.06620254
-0.085680984 0.100608654 -0.073482506 -0.056696177 0.010224454 0.050112195 -0.030018624 0.069170654
-0.07797615 0.057218514 0.09436036 -0.016135113 -0.090459146 0.051718533 0.08809535 -0.015944574
0.00046645678 -0.029829236 0.054581013 -0.031115921 -0.03717356 0.07129713 -0.0011129975 -0.0957969
0.07557112 0.015668474 0.040449776 -0.04038397 0.07474829 0.029685555 -0.015856428 0.09295704
0.030752802 -0.03509645 -0.018420532 -0.08692843 -0.09026971 0.033219136 -0.021885797 -0.039489564
0.08265663 -0.04586037 -0.041692145 0.047814842 -0.035621174 0.03204822 -0.024512544 0.08837472
-0.0851626 0.059644237 -0.09715947 -0.069601946 0.104137294 0.04476113 0.08172501 -0.07898644
-0.04051698 -0.00942922 0.007707335 -0.03519007 0.059716485 -0.099648714 -0.011372529 0.09860762
-0.039823987 0.0012264252 -0.061527085 -0.062468734 -0.097768776 -0.026445553 -0.016938053 0.01692941
0.05235938 0.091485925 0.012354471 0.032550298 0.08220918 0.0694251 0.099082 0.015902959
0.017973602 0.080409594 0.045682855 -0.08804804 -0.051342834 0.09991614 0.008909598 0.053113125
0.04093466 -0.016748406 -0.082138345 -0.065293744 0.0582766 -0.020756736 0.08345156 0.056591757
-0.087907575 -0.0051621944 0.07356145 -0.06729886 -0.079276286 0.0003458485 0.082946725 -0.067068614
0.02880495 -0.04003867 0.072596066 -0.039342165 0.01945863 0.04998628 0.04162007 -0.0070150495
-0.0452088 0.096162565 -0.069177784 -0.082686186 -0.08009875 -0.058150865 -0.0750798 0.0042611584
0.054065473 -0.011966251 0.05255706 -0.06914131 0.06996786 -0.045411684 0.06952924 0.02378814
-0.07224189 0.01076138 -0.07370688 0.025230534 0.040175878 -0.09837537 -0.027656257 -0.06619792
-0.09534097 -0.00557296 0.09448927 -0.028752163 -0.006303653 -0.020265982 0.07502297 -0.059611823
0.048431285 -0.099199116 0.0028175265 0.017883338 -0.050401606 0.0011631623 -0.09683769 0.07300257
-0.08716374 -0.067121 0.047564007 -0.0681466 -0.06430818 0.09371451 0.057356723 0.04212848
0.032819293 0.041335937 0.04160558 0.066429906 0.052225254 0.009210057 -0.007199779 -0.09041985
-0.025521435 0.077870294 -0.02286454 -0.057699937 -0.05934198 -0.010131465 0.09816326 -0.041184485
-0.052641977 -0.041251745 -0.010036755 -0.0812981 -0.09004968 0.035455458 0.0095847575 -0.02546139
-0.013128018 -0.031368487 -0.085875705 0.08093672 -0.0066802325 0.091665305 -0.067819156 0.053102322
-0.092816316 0.09264722 -0.007377247 -0.09136539 -0.007658188 0.004249863 -0.069801025 0.05745187
0.009731092 0.09527542 0.0262459 -0.05695727 -0.005899461 -0.060095422 -0.029690385 0.06963783
0.093801625 -0.0499532 0.046977736 -0.02300318 -0.09634431 0.06656532 0.009918493 -0.00058088795
00000000: fdf6 743d 77c8 e1bc 6d33 45bd e6be 9cbd
00000010: 7e31 3fbd 3848 82bd 7a64 503d 8119 b8bc
00000020: 6943 ad3d 02dd 9bbd eb3f 80bd be75 ab3b
00000030: 5034 abbb 3b95 b9bd f559 c73c ae89 203d
00000040: 65e5 afbc 4ce6 e1bc 9b61 593d 81ec a2bd
00000050: f0a0 18bd 0a55 4c3d 8618 453d d626 183d
00000060: a2f3 af3c 82c2 afbb abf6 873d 13cf 693d
00000070: ba44 4d3d 800e b2bc d7eb bfbc 56ab 843c
00000080: e8ea 943c 13a6 ae3d 358c 4dbc a9e6 aa3d
00000090: 8ccc f9bc 49cc cbbd 8c3b b73d 3395 87bd
000000a0: 8379 afbd e90b ce3d ff7d 96bd 403a 68bd
000000b0: 7884 273c 7242 4d3d 9ee9 f5bc 58a9 8d3d
000000c0: f6b1 9fbd f65d 6a3d 0140 c13d c92d 84bc
000000d0: a542 b9bd d0d6 533d 566b b43d 329e 82bc
000000e0: c58e f439 715c f4bc 5790 5f3d d1e6 febc
000000f0: 4e43 18bd 3b04 923d 00e2 91ba 2a31 c4bd
00000100: 08c5 9a3d 2c5b 803c aaae 253d a969 25bd
00000110: a215 993d 1f2f f33c 57e5 81bc 4360 be3d
00000120: 4ded fb3c 4cc1 0fbd a8e6 96bc 8807 b2bd
00000130: 53df b8bd ca10 083d d849 b3bc cfbf 21bd
00000140: e147 a93d 15d8 3bbd 62c5 2abd 7fd9 433d
00000150: 82e7 11bd ff44 033d 88ce c8bc cefd b43d
00000160: bb69 aebd 844d 743d 8bfb c6bd 778b 8ebd
00000170: ef45 d53d 7257 373d 715f a73d a5c3 a1bd
00000180: 22f5 25bd 047d 1abc d08d fc3b 7623 10bd
00000190: 4699 743d a014 ccbd d853 3abc cbf2 c93d
000001a0: 7a1e 23bd 00c0 a03a d303 7cbd 37df 7fbd
000001b0: ff3a c8bd 58a4 d8bc acc1 8abc 8caf 8a3c
000001c0: ca76 563d f95c bb3d 686a 4a3c 7653 053d
000001d0: 495d a83d bf2e 8e3d 81eb ca3d ec46 823c
000001e0: 603d 933c c9ad a43d f21d 3b3d 8852 b4bd
000001f0: dd4c 52bd d5a0 cc3d 90f9 113c 268d 593d
00000200: 1aab 273d f433 89bc 2638 a8bd bab8 85bd
00000210: 72b3 6e3d 080a aabc a7e8 aa3d c2cc 673d
00000220: e308 b4bd a027 a9bb 63a7 963d fcd3 89bd
00000230: 9b5b a2bd 0053 b539 f9df a93d 455b 89bd
00000240: 5cf8 eb3c 97ff 23bd 3fad 943d 4025 21bd
00000250: b467 9f3c 6abe 4c3d ce79 2a3d 80de e5bb
00000260: dd2c 39bd e1f0 c43d 15ad 8dbd 6057 a9bd
00000270: d00a a4bd 9a2f 6ebd 70c3 99bd 30a1 8b3b
00000280: c273 5d3d 180e 44bc 1246 573d f699 8dbd
00000290: 4f4b 8f3d 9a01 3abd 5965 8e3d 58df c23c
000002a0: 8ef3 93bd 8050 303c a2f3 96bd 44b0 ce3c
000002b0: 768f 243d 0779 c9bd 608f e2bc c692 87bd
000002c0: 2042 c3bd 609d b6bb 9783 c13d a889 ebbc
000002d0: e08e cebb d804 a6bc a5a5 993d 872b 74bd
000002e0: e25f 463d e828 cbbd 40a6 383b 1480 923c
000002f0: ea71 4ebd 4075 983a d752 c6bd 5f82 953d
00000300: e782 b2bd bc76 89bd 7ad2 423d 7290 8bbd
00000310: 02b4 83bd 65ed bf3d e2ee 6a3d ea8e 2c3d
00000320: 866d 063d df4f 293d 9d6a 2a3d 670c 883d
00000330: 26ea 553d c7e5 163c 20ec ebbb 0b2e b9bd
00000340: 5412 d1bc 767a 9f3d 6a4e bbbc c556 6cbd
00000350: 9310 73bd 72fe 25bc d209 c93d 10b1 28bd
00000360: 1d9f 57bd 97f7 28bd 3471 24bc 9e7f a6bd
00000370: f76b b8bd be39 113d 6309 1d3c 6894 d0bc
00000380: e616 57bc 3e7c 00bd 9adf afbd 27c2 a53d
00000390: dae5 dabb 05bb bb3d c5e4 8abd d281 593d
000003a0: 7b16 bebd d3bd bd3d d5bc f1bb c71d bbbd
000003b0: 8af1 fabb 6f42 8b3b d7f3 8ebd a752 6b3d
000003c0: 286f 1f3c c21f c33d a401 d73c 074c 69bd
000003d0: 4450 c1bb 9e26 76bd 4039 f3bc 479e 8e3d
000003e0: 111b c03d ba9b 4cbd ba6b 403d 2a71 bcbc
000003f0: 2a50 c5bd 6653 883d 2d81 223c bb46 18ba

network.action_value.2.bias f4 [100]
0.045151383 -0.08692602 -0.032711975 -0.048196603 0.050559826 0.10557391 0.08528981 -0.015847042
0.08822481 -0.037020624 -0.052208025 -0.050407395 -0.07600162 -0.0024386526 -0.08336322 0.03399682
-0.08291666 -0.043718304 -0.03219153 -0.05089536 -0.03836407 -0.034912657 0.07535388 -0.02455764
0.039457656 -0.0102248425 -0.082470745 0.0342473 -0.016829215 0.103023104 0.02840463 0.016207144
0.07034809 -0.0020073703 0.09867457 -0.08723734 -0.06367423 0.04159812 0.08447946 -0.09770235
0.08342994 0.04481987 -0.06605413 -0.018378183 -0.057979774 -0.07757373 0.09091436 0.04040318
-0.030073605 -0.038174126 -0.0076281507 -0.06776064 0.091292165 -0.0062139207 -0.100962855 -0.059806466
0.029822523 0.069483936 -0.07591558 0.021626748 -0.07167599 0.080443524 0.0610568 0.06274647
0.053151615 0.10722491 -0.08167139 -0.00519358 0.036192827 -0.08615358 -0.0988413 -0.053775977
0.005763752 0.12134302 0.029592035 -0.014173548 -0.063416764 -0.07050371 -0.044613905 -0.107351705
0.09316498 0.08252623 -0.08011115 -0.04881672 -0.09868175 0.0049497792 0.08275593 -0.06503487
0.09814777 0.08540163 0.09936822 -0.047810532 0.019689145 0.007092692 0.028554102 0.054737456
-0.06988715 0.043438204 0.11591328 -0.047279965
00000000: a8f0 383d 4506 b2bd fefc 05bd cd69 45bd
00000010: d217 4f3d 2237 d83d 6dac ae3d a8d1 81bc
00000020: 36af b43d f0a2 17bd 15d8 55bd fc77 4ebd
00000030: bda6 9bbd cdd1 1fbb 56ba aabd 4040 0b3d
00000040: 36d0 a9bd f711 33bd 44db 03bd a777 50bd
00000050: a523 1dbd 9300 0fbd 2353 9a3d 1b2d c9bc
00000060: 5a9e 213d 1986 27bc 6ce6 a8bd e646 0c3d
00000070: 6cdd 89bc c7fd d23d d4b0 e83c d8c4 843c
00000080: a912 903d 168e 03bb e515 ca3d 7ea9 b2bd
00000090: a267 82bd ca62 2a3d 9103 ad3d 2b18 c8bd
000000a0: 51dd aa3d 0a95 373d 6347 87bd d88d 96bc
000000b0: 337c 6dbd fade 9ebd 4f31 ba3d ce7d 253d
000000c0: ec5c f6bc 795c 1cbd 91f5 f9bb 17c6 8abd
000000d0: 63f7 ba3d 259e cbbb 9dc5 cebd a0f7 74bd
000000e0: 5d4e f43c 984d 8e3d a179 9bbd 942a b13c
000000f0: ddca 92bd 93bf a43d b216 7a3d 3981 803d
00000100: 82b5 593d bc98 db3d 5443 a7bd e82e aabb
00000110: ee3e 143d 4a71 b0bd 4f6d cabd 3344 5cbd
00000120: dbdd bc3b b082 f83d ff6a f23c 2b38 68bc
00000130: a6e0 81bd 4064 90bd 12bd 36bd 36db dbbd
00000140: 48cd be3d 8303 a93d 5111 a4bd 0af4 47bd
00000150: a819 cabd c231 a23b f17b a93d 0031 85bd
00000160: b301 c93d 0de7 ae3d 9181 cb3d fad4 43bd
00000170: 214b a13c d069 e83b 4bea e93c 6234 603d
00000180: fe20 8fbd 42ec 313d f163 ed3d a3a8 41bd

network.action_value.4.weight f4 [9, 100]
0.04020947 0.05300834 -0.021923378 -0.06978264 0.037805982 0.040336747 -0.077322036 -0.059081912
0.003627958 0.041110072 -0.03479759 0.019007642 0.03681966 -0.013902451 0.06353133 -0.0786603
0.06759686 0.08236171 0.0003168583 0.024540683 -0.0762357 0.07502591 -0.0816582 0.04807083
-0.03630868 -0.004883956 0.0010188838 -0.06210902 -0.10632537 0.06078429 -0.096679986 -0.09094924
-0.025463961 -0.1100844 -0.037016094 0.03687026 -0.03847934 0.021750877 0.07973385 -0.09069852
0.06451524 0.05578553 0.075465396 0.030418761 0.04308083 -0.09449213 0.08508391 0.074785836
-0.066413075 -0.052780386 -0.07421569 -0.008888961 0.029967641 -0.09880879 -0.06948584 0.083284
0.09048562 0.059576243 -0.0778377 -0.058440972 0.0024540052 -0.041155204 0.040021658 -0.0003170967
-0.04490925 0.040088434 -0.041490253 -0.057398442 -0.11984322 -0.10058728 0.018962177 0.089392565
-0.057806026 -0.05114347 0.089264445 0.062730946 0.033488225 0.049527053 0.060873676 -0.01902847
-0.060743183 0.06991517 -0.0598279 0.021824714 0.00538225 -0.11561408 -0.09232318 -0.02798837
0.04433233 -0.012856835 -0.004780124 -0.07518639 0.050507046 0.06840929 -0.04843647 -0.09406383
0.037056983 -0.04966253 -0.08206588 0.017162383 -0.0722721 -0.010890543 -0.047662355 0.0068176985
0.013674654 -0.111565046 0.018252995 -0.088355295 -0.05046323 0.05394409 0.038858417 -0.05592902
-0.07113526 0.028888913 0.065707214 0.013037178 -0.11590411 -0.049356293 -0.05594746 0.00095753674
0.07093657 -0.061480846 0.08207177 -0.08023789 -0.009553229 0.04238877 -0.036082316 0.03983561
-0.119260125 -0.043220818 -0.014026806 0.050455086 0.049222626 0.052923787 0.089405514 0.03766654
-0.059023928 -0.0038685 0.07350142 -0.020192564 0.08729585 0.06785674 -0.036373135 -0.08422969
0.027215801 0.086345874 0.039836235 -0.0038938522 0.05562412 0.09559349 -0.093377665 -0.022526927
0.04019944 0.076319225 -0.09176115 -0.05686319 -0.049237974 0.07070537 -0.037767477 -0.09507044
0.021403015 0.07221073 0.06362551 0.08843217 -0.042898323 0.027860316 0.05094335 -0.08851614
-0.051736824 -0.037372183 -0.045244966 0.022683166 0.015528835 -0.0558433 0.019586308 -0.038341288
0.02477313 0.011030244 -0.047302052 0.039192803 0.031262785 -0.10349116 0.06965974 0.06725815
0.02116081 -0.054356914 0.05869607 -0.06405654 0.027586412 -0.047927115 0.06415072 0.026025929
0.06483637 0.052951224 -0.03900018 -0.10585566 0.058896765 0.005377151 0.007130959 0.04581619
0.03779308 0.09948117 0.025877753 0.018650852 0.0054506464 -0.021760322 -0.060620554 -0.08598637
-0.10815193 -0.017884959 -0.06708204 0.025631003 -0.017379656 0.009905187 0.07981201 0.050316457
-0.08559565 0.07471543 -0.0024355277 -0.01039548 0.07796139 0.025859822 -0.028757274 -0.057875056
-0.11346857 0.07183426 0.07308099 0.0035377145 0.06719578 0.06325197 -0.027961954 -0.061642896
0.020356849 -0.036835503 -0.085806765 -0.06654161 0.08433237 -0.030359581 0.0071757943 -0.004665777
0.07673041 -0.06126356 0.0607595 0.053284235 -0.0028092489 -0.050541505 0.08029357 0.08008508
-0.017839096 -0.086665325 0.013452835 -0.06749957 -0.016896581 -0.01646224 0.023366444 -0.06852323
00000000: afb2 243d 461f 593d a898 b3bc 33ea 8ebd
00000010: 72da 1a3d 2538 253d 045b 9ebd e0ff 71bd
00000020: 09c3 6d3b 0963 283d eb87 0ebd eab5 9b3c
00000030: 36d0 163d 1bc7 63bc b71c 823d a718 a1bd
00000040: 3970 8a3d 42ad a83d 0020 a639 8b09 c93c
00000050: 7621 9cbd 2fa7 993d 6a3c a7bd ebe5 443d
00000060: 69b8 14bd 9809 a0bb 118c 853a 0766 7ebd
00000070: 1ec1 d9bd f3f8 783d 2800 c6bd 9843 babd
00000080: cc99 d0bc ee73 e1bd 309e 17bd 4505 173d
00000090: 839c 1dbd e52e b23c 804b a33d 25c0 b9bd
000000a0: 9120 843d 5e7f 643d 9a8d 9a3d c430 f93c
000000b0: 8675 303d 1785 c1bd 7940 ae3d 5129 993d
000000c0: 9403 88bd 3f30 58bd 65fe 97bd 01a3 11bc
000000d0: b37e f53c 435c cabd 984e 8ebd cd90 aa3d
000000e0: 8650 b93d 3806 743d 5f69 9fbd cd5f 6fbd
000000f0: 60d3 203b 5c92 28bd c0ed 233d 0040 a6b9
00000100: c3f2 37bd c533 243d aff1 29bd a11a 6bbd
00000110: 5d70 f5bd b400 cebd 9156 9b3c 7313 b73d
00000120: 03c6 6cbd d17b 51bd 47d0 b63d 1579 803d
00000130: f32a 093d e1dc 4a3d ad56 793d 98e1 9bbc
00000140: d8cd 78bd af2f 8f3d 1a0e 75bd bec9 b23c
00000150: 965d b03b 13c7 ecbd ef13 bdbd de47 e5bc
00000160: d195 353d 79a5 52bc 96a2 9cbb 52fb 99bd
00000170: 7ae0 4e3d 2b1a 8c3d 5265 46bd 8aa4 c0bd
00000180: 10c9 173d f06a 4bbd 2812 a8bd 2098 8c3c
00000190: 6503 94bd 406e 32bc 9a39 43bd 0067 df3b
000001a0: a80b 603c 377c e4bd 4e87 953c 9ff3 b4bd
000001b0: 88b2 4ebd 7af4 5c3d 012a 1f3d d415 65bd
000001c0: 5daf 91bd 71a8 ec3c 8191 863d e399 553c
000001d0: 225f edbd d329 4abd 2a29 65bd 3403 7b3a
000001e0: 3147 913d 57d3 7bbd 3f15 a83d c353 a4bd
000001f0: 2685 1cbc d99f 2d3d 0dcb 13bd aa2a 233d
00000200: a73e f4bd 5008 31bd b0d0 65bc fea9 4e3d
00000210: aa9d 493d 9dc6 583d 3d1a b73d 3b48 1a3d
00000220: 13c3 71bd a986 7dbb ea87 963d e06a a5bc
00000230: 2bc8 b23d 79f8 8a3d fffb 14bd 9e80 acbd
00000240: acf3 de3c 1bd6 b03d 522b 233d 0030 7fbb
00000250: 1ed6 633d 85c6 c33d ca3c bfbd 648a b8bc
00000260: 2ba8 243d 414d 9c3d 45ed bbbd 60e9 68bd
00000270: c2ad 49bd facd 903d 12b2 1abd 4ab4 c2bd
00000280: 6055 af3c 38e3 933d 174e 823d ed1b b53d
00000290: 27b6 2fbd 513b e43c f9a9 503d f347 b5bd
000002a0: fee9 53bd 9313 19bd c952 39bd 0cd2 b93c
000002b0: a86c 7e3c f2bb 64bd 7773 a03c c10b 1dbd
000002c0: 05f1 ca3c 32b8 343c ccbf 41bd a288 203d
000002d0: 680d 003d 2cf3 d3bd c4a9 8e3d a4be 893d
000002e0: 6f59 ad3c 5ba5 5ebd 4a6b 703d 1330 83bd
000002f0: e6fc e13c 394f 44bd 7461 833d 5434 d53c
00000300: eec8 843d 62e3 583d a7be 1fbd daca d8bd
00000310: bc3d 713d d032 b03b d2aa e93b c2a9 3b3d
00000320: ebcc 1a3d c9bc cb3d 95fd d33c acc9 983c
00000330: 569b b23b b442 b2bc 424d 78bd 9f19 b0bd
00000340: c27e ddbd 7a83 92bc 4f62 89bd 1cf8 d13c
00000350: c85f 8ebc 5e49 223c 7b74 a33d a118 4e3d
00000360: c64c afbd 6704 993d 609d 1fbb ce51 2abc
00000370: 39aa 9f3d fad7 d33c 6094 ebbc 650e 6dbd
00000380: 3662 e8bd d71d 933d 7cab 953d 00d9 673b
00000390: f19d 893d 408a 813d 7810 e5bc 437d 7cbd
000003a0: 68c3 a63c d3e0 16bd 75bb afbd f846 88bd
000003b0: 73b6 ac3d a8b4 f8bc ed22 eb3b 60e3 98bb
000003c0: d524 9d3d 80ef 7abd f4de 783d 9240 5a3d
000003d0: 601b 38bb 9c04 4fbd f570 a43d a503 a43d
000003e0: 4c23 92bc 977d b1bd 4869 5c3c 373d 8abd
000003f0: b36a 8abc d2db 86bc fc6a bf3c e855 8cbd

network.action_value.4.bias f4 [9]
-0.015926406 -0.049421676 0.08069723 0.064810775 -0.08500526 0.069319025 0.11360903 0.12111028
0.062959865
00000000: 1878 82bc 626e 4abd 9744 a53d 83bb 843d
00000010: 3d17 aebd 22f7 8d3d daab e83d ab08 f83d
00000020: 1af1 803d
