A2/test_trainer.pt (torch, 45946 bytes, 6 tensors)

action_value.0.weight f4 [100, 4]
00000000: 0010 9bbb 4c0c d23e d0bf c9bd 00b6 2dbc
00000010: 845f 7bbe 90bf 54bd d46d 59be a88f 513e
00000020: 7eb3 983e f0ba 993e 7051 fabe ae8d eb3e
00000030: 5c81 e0be 5097 39bd a8d5 8fbd 4c8f 3cbe
00000040: 7cc2 503e ec44 3fbe 2061 993c 1cb3 b63e
00000050: c84d b73e 24a7 8a3e 0072 cd3d 1e2d d33e
00000060: 1016 7f3d 6252 98be 0017 383d 18f7 863d
00000070: 24e0 95be 6c94 623e 9c83 b2be 5cdf 43be
00000080: 8c6e efbe ba02 c43e c6b2 cc3e 1a9b a8be
00000090: d68f 95be ee56 b6be b614 a1be f426 f6be
000000a0: 703e fabe d2c1 f0be b005 563e b2ed cebe
000000b0: 584f 433e 105e 083e 200b bd3c 02bd a93e
000000c0: 56e2 ac3e 8444 ee3e 3cea 42be bae8 e23e
000000d0: fca2 bfbe 62ca c63e eca5 d83e c430 a23e
000000e0: 9a47 e0be fed2 863e 4cae d13e 3c21 5cbe
000000f0: 40d5 543c 00c3 df3c f497 8ebe 7c58 733e
00000100: 7041 20be 90da 1f3d 92d5 8ebe 00e3 fd3c
00000110: a4e5 c9be 8098 c23c 44bd 3d3e 6ead ee3e
00000120: e0dd 32bd 224f c3be 0099 78bc 0801 633e
00000130: 58e4 7fbe ccbe 2f3e 7814 29be 6857 fd3d
00000140: 8eee b7be 90fe 493e 7e39 b1be c00c 55bc
00000150: 3c6f b83e b8dd b3be 7663 f13e 44d0 ed3e
00000160: 40ee 67bc 08b2 5abe 841c 88be c067 4fbd
00000170: 7e27 e6be 22ee a33e b887 3dbe b242 d73e
00000180: 6624 9abe c434 aa3e 4666 ccbe 2866 d43d
00000190: 4cf6 693e 34f8 7e3e 8076 8c3d 74c5 b13e
000001a0: fc4b 1dbe 5059 47be 96a7 8b3e 9ebc 9ebe
000001b0: 4ea8 8c3e ac99 f43e 303e 593d d47e 1abe
000001c0: 56ab a7be 0c0d eebe 1064 2d3e 8869 433e
000001d0: a022 4ebd 6ef4 be3e 88ac 013e e8fa ef3d
000001e0: c27a c0be 64d8 e93e cc04 943e 90e8 41bd
000001f0: 1837 eb3d d068 123d 8032 dc3e 0ab0 8b3e
00000200: 34ee 6fbe fc04 91be 48bf bbbd 4427 643e
00000210: 4890 a73e 0692 eb3e 302c e1be 9cd6 65be
00000220: 1863 f33e c021 133d 2816 e43d 2cb3 d0be
00000230: 0098 7f3d 28d3 d3bd 6a02 a2be f0fa b33d
00000240: f870 a4bd 3c48 0d3e 6834 b13e 482b dfbd
00000250: 182e 703e 9e3d 863e b8ac b8be d0a6 1dbe
00000260: 16bc 8ebe 943d 833e 7a66 99be c2e0 a2be
00000270: 7aac f43e 0c7c acbe f034 dabe 54c4 fcbe
00000280: 00a8 c1b9 04ce ef3e 94d2 0c3e 600b ca3e
00000290: 88b9 333e e019 b0bd c058 10bd 6cd3 2abe
000002a0: 08c8 c0be ba3d cfbe f042 f23e e0b6 a0be
000002b0: 643d 703e b859 4abe 2625 883e 4099 ae3c
000002c0: 90f2 4c3d 006e 253c a8c5 6cbe 209d 933e
000002d0: a060 0f3e 6e8f 94be ea40 a73e 8273 abbe
000002e0: 44cc 28be 60db 6abd 2078 863c 88df 84bd
000002f0: b025 34be 24e9 6cbe 908e ea3d 5878 bc3e
00000300: 82ef 823e 781a e33e 808a a73d 967c b8be
00000310: 36c5 80be cc16 b73e 004c b9bd e876 edbe
00000320: 38a7 8dbd f293 e03e b08e 06bd 00cf 473c
00000330: febc a23e 48e6 21be 68ac 953d 7007 933e
00000340: 0079 d0bb 90f0 d0bd a047 89be 2ad9 e0be
00000350: 706b 433d 0090 963b 5472 363e 9a1b bcbe
00000360: c26d e23e 601e b5be 18c6 f33d 00c6 ecbb
00000370: 180c f7be b026 24be aa5a d0be d298 8f3e
00000380: 026e 9abe 22c8 91be 24d3 1e3e 5027 093e
00000390: 1838 f63e 4847 103e e0df dabd d62e eabe
000003a0: 90f8 febd b622 c8be fa3e 8bbe 10a5 ccbd
000003b0: 2c71 05be 8002 09bc 9010 37bd dedd bcbe
000003c0: 7040 cdbe d4fb cabe 6cad 093e c48f 053e
000003d0: bebb be3e 9030 72bd b6de bbbe 1848 b63d
000003e0: e855 943d 084a 423e fe0c dabe 001a 483e
000003f0: c83f c53e f493 bfbe 603b 65be 7c01 e93e
-0.004732132 0.41025007 -0.098510385 -0.010602474 -0.24548155 -0.0519405 -0.21233302 0.20464957
0.29824442 0.30025434 -0.48890257 0.4600653 -0.43848693 -0.04531032 -0.070231736 -0.18414038
0.2038669 -0.18678635 0.01872307 0.35683525 0.3580153 0.27080643 0.100315094 0.4124536
0.0622769 -0.29750353 0.04494381 0.06590098 -0.29272568 0.22126931 -0.34866035 -0.19128174
-0.46764028 0.3828333 0.39980143 -0.32930833 -0.292113 -0.35613197 -0.31461114 -0.48076594
-0.4887576 -0.47022873 0.20900607 -0.40415722 0.19073236 0.13317132 0.023076594 0.33152014
0.3376643 0.46536648 -0.19034666 0.4431818 -0.37429035 0.3882628 0.42314088 0.3167783
-0.43804628 0.2633285 0.4095329 -0.21497053 0.012990296 0.027314663 -0.27850306 0.23764223
-0.15649962 0.039026797 -0.27897316 0.030992031 -0.39433014 0.023754358 0.1852923 0.4661669
-0.043668628 -0.3814631 -0.015173197 0.22168362 -0.2498945 0.17162627 -0.16511714 0.12370187
-0.3592419 0.19726014 -0.34614176 -0.013003528 0.36022365 -0.35130095 0.47146195 0.46447957
-0.014155924 -0.21356976 -0.26584256 -0.050636053 -0.44952005 0.32017618 -0.18508804 0.42043072
-0.30105895 0.33243382 -0.39921778 0.10371047 0.22847861 0.2489937 0.068585396 0.34720957
-0.15361017 -0.19467664 0.27276295 -0.31003278 0.27472156 0.47773492 0.053037822 -0.15087444
-0.32747906 -0.4649433 0.16932702 0.19083226 -0.05032599 0.3729586 0.12663472 0.117177784
-0.37593657 0.45672905 0.2890991 -0.04734093 0.11485118 0.03574449 0.43007278 0.27282745
-0.23430711 -0.28324115 -0.091673434 0.22280604 0.32727265 0.46009845 -0.43979025 -0.22445148
0.4753654 0.03592086 0.111370385 -0.40761697 0.062400818 -0.10343009 -0.31642467 0.08788097
-0.080293596 0.13797086 0.34610295 -0.10896927 0.23455083 0.26218885 -0.36069274 -0.15395665
-0.27877873 0.25632918 -0.29960996 -0.31812102 0.4778784 -0.3368839 -0.42618513 -0.49368536
-0.00036936998 0.46836865 0.13752204 0.39461803 0.17551243 -0.08598685 -0.03524089 -0.16682214
-0.37652612 -0.4047678 0.47316694 -0.31389523 0.23460919 -0.19760787 0.26590842 0.02131331
0.050036013 0.010097027 -0.23122275 0.28830814 0.14001703 -0.29015678 0.32666713 -0.33486563
-0.16484171 -0.05733812 0.016414702 -0.06487948 -0.17592502 -0.23135811 0.11452973 0.36810565
0.25573355 0.44356132 0.08180714 -0.36032552 -0.2515046 0.3575958 -0.09047699 -0.4637978
-0.0691666 0.43862873 -0.03285092 0.012195349 0.31784815 -0.15810502 0.073082745 0.28716612
-0.0063620806 -0.10202134 -0.26812458 -0.43915683 0.047709882 0.004594803 0.1781705 -0.36739808
0.44224364 -0.35374737 0.11903018 -0.007225752 -0.48251414 -0.16030383 -0.4069417 0.2804628
-0.30162054 -0.28473002 0.15510231 0.13393903 0.4808967 0.14089692 -0.10687232 -0.45738858
-0.12449753 -0.39088982 -0.27196485 -0.09992421 -0.13031453 -0.008362412 -0.04469353 -0.3688802
-0.40088224 -0.39645255 0.13445061 0.13043123 0.3725261 -0.059128344 -0.36693352 0.089004695
0.07242948 0.18973553 -0.42588037 0.19541168 0.38525224 -0.37417567 -0.22385931 0.45508945

action_value.0.bias f4 [100]
00000000: a406 e33e 825f c73e b0e1 eb3e a8cb c13d
00000010: 32e6 f93e 08c8 e63d fca9 2fbe ce97 bd3e
00000020: 70b2 86bd fa9b d73e dc91 da3e c07a 143e
00000030: 882c 3fbe 30ff 503e 0089 69be f03e a2bd
00000040: c27c d6be 2ee1 bebe 907d 603d ac7e e13e
00000050: ec57 4e3e e6be fc3e 78e7 893d d064 fe3d
00000060: 808d d6bc d80b 76be 4e00 9dbe a8e5 e7be
00000070: c8a5 b9be d04f 87bd e0f1 53bd 320d 943e
00000080: fc05 673e f806 44be ce7b 923e 167d c83e
00000090: a0e0 e03d ac7f 463e 80aa 693e a089 bc3e
000000a0: 08e3 afbe 6ac6 8d3e a83d e63e a498 753e
000000b0: ce34 b5be da08 913e 80f8 b13b d20d a7be
000000c0: 3804 c33e 9028 1fbe b068 43bd b05d 633e
000000d0: c0eb debe 3c52 913e 709f b43e 38c4 dbbd
000000e0: b030 eebd d88c c8be 148b d0be 6eab a63e
000000f0: e02e 8abe f08e c1bd 7cb0 9bbe 6c5b b83e
00000100: a8c6 e03d 3cff d93e 942f 93be f0c4 b43d
00000110: 4019 4d3c d423 c43e 103e a3be 6831 8fbd
00000120: e086 4dbd 10bd f03e d468 073e a0eb b63d
00000130: f439 acbe 64b4 26be 200c b53d e0fe adbd
00000140: e88a cebd 56ba e0be b076 4fbe 1088 f3bd
00000150: bcbf b33e c00e c13e 6e70 963e 7ea2 be3e
00000160: 8afc debe 0080 1ab9 0064 efba 90e1 bebd
00000170: 0055 26bc c4ae 31be 5c9c 79be 7647 a43e
00000180: 00a2 af3c 9608 aebe 92d3 94be 2023 a53e
0.44341004 0.38940054 0.46070623 0.094626725 0.48808438 0.11268622 -0.17154688 0.3702988
-0.06577003 0.42111188 0.42689407 0.1449995 -0.18669331 0.20409846 -0.22806168 -0.079221606
-0.41892058 -0.37281173 0.054807246 0.44041955 0.20150727 0.49364394 0.06733602 0.12421572
-0.02619052 -0.24027956 -0.30664295 -0.452924 -0.36259294 -0.0660702 -0.05174434 0.28916317
0.22560877 -0.19143283 0.2861008 0.39157933 0.10980344 0.1938464 0.22818947 0.3682375
-0.343529 0.2769044 0.44968915 0.23984009 -0.3539185 0.28327066 0.005431235 -0.32627732
0.38089156 -0.15542817 -0.04770726 0.22203708 -0.43539238 0.28383052 0.3527789 -0.10730785
-0.1163038 -0.39169955 -0.40731108 0.32552665 -0.26988888 -0.09451091 -0.30408084 0.3600725
0.10975391 0.4257754 -0.28747237 0.08826625 0.012518227 0.38308585 -0.31883287 -0.06991845
-0.050177455 0.47019243 0.13223583 0.08931661 -0.33637965 -0.16279751 0.08840203 -0.08495879
-0.10085088 -0.43892163 -0.2026012 -0.11891186 0.3510722 0.37706566 0.29382652 0.37233347
-0.43552047 -0.00014734268 -0.0018264055 -0.093203664 -0.0101521015 -0.17351824 -0.24376053 0.3208577
0.021439552 -0.33990926 -0.29067665 0.3225336

action_value.2.weight f4 [100, 100]
00000000: fee0 a4bd be6e 0b3d 1421 c6bc 8009 a23c
00000010: c031 973c 919c b33d 0d47 bebd ed35 6abd
00000020: 880a b2bc eaad 563d 9450 15bd d787 2dbd
00000030: a0bf 813b 30c6 5dbd aa38 13bd 60de 93bb
00000040: a318 a63d d0b2 82bd defc 3c3d 6a23 24bd
00000050: 4c9a 8a3c 6884 b2bc ce62 a0bd bb7e a7bd
00000060: 9846 a6bc 2331 61bd c023 2bbc 1dfc b2bd
00000070: 1d64 7fbd 60cf a33c 182e 13bc 3342 abbd
00000080: d00c 663c 00ab 283b 3f20 babd 721e 7b3d
00000090: fce6 ed3c ecbd d7bc d0eb b9bd 55b8 cabd
000000a0: e86b 5d3c 235b 6fbd 8009 06bc 5a5d 733d
000000b0: b5d7 84bd c64d 8ebd f7cb 79bd 492c 893d
000000c0: 7280 0f3d 65f5 ca3d f9f1 923d 4319 8b3d
000000d0: 1a46 b9bd 6a81 423d ad58 be3d c048 e13a
000000e0: c7e1 963d 309a f6bb ed96 8a3d 88c6 f2bc
000000f0: 23c7 71bd c8e9 dcbc a0ad a73b 62fb 90bd
00000100: 8a9a 5abd 04fc eb3c c06c 1c3c 87d0 b4bd
00000110: 0b26 b6bd f7f7 c7bd 7128 a73d e0db 4dbd
00000120: d7b0 41bd e69b 403d 2481 da3c d1d3 973d
00000130: 189f 9abd 030a 4abd b618 403d f2bd 763d
00000140: 12cf 4e3d 7800 933c 48b1 b2bc 6d42 7cbd
00000150: 365f 493d d839 3cbc 4dba 88bd 6094 02bb
00000160: a138 873d 7356 7bbd b7dc 49bd 994a 863d
00000170: 5841 023c 00b8 9e3c 383d 923c 1e35 013d
00000180: f973 863d e81b 85bc a211 3a3d f7fb 19bd
00000190: 1883 8cbd 3250 5f3d 9543 b93d 4022 2abc
000001a0: 3d44 77bd f2fb 413d 7ab2 60bd 982c 91bd
000001b0: 7229 b1bd 4232 b9bd 4a56 7abd e95f 933d
000001c0: f3ab 3cbd f49f f4bc 98dd 88bd 3700 bfbd
000001d0: 6045 8cbc b06e 193c 77e2 b43d 1ad6 293d
000001e0: e0b7 7dbd 809e f0bb 8ae9 653d 6350 a73d
000001f0: 93ee 70bd 4045 99bd 6356 c63d bf7e ccbd
00000200: 5d05 5cbd a2dc 6e3d c0ec 823a 3343 cabd
00000210: becb 8bbd 508f b5bb 6d8e 27bd 8de3 a03d
00000220: 80c4 b23b 774a c63d 10d8 763c 503f 19bc
00000230: 8ade 183d 5df3 88bd fa05 4ebd edbc 7dbd
00000240: 9269 343d 2abc 2d3d 5a5c 1e3d a802 1e3c
00000250: 30d3 523c 50c2 a7bd 40b6 393c 8868 c23c
00000260: 6413 d53c 60c8 a4bc d560 993d 6007 ee3b
00000270: b627 98bd d76e b33d 4b0d 9c3d b2ba 223d
00000280: a16d 8a3d e8ee afbd 6889 593c c70d 7dbd
00000290: 89f8 a13d 914b bb3d c2f3 7e3d b07e 653c
000002a0: a2bf c7bd e370 67bd 770c c93d 4232 0b3d
000002b0: c8b1 a4bc 2c21 c5bc 2983 873d 5863 133c
000002c0: 248c d63c eaf9 c4bd 000b c8bd ad69 50bd
000002d0: 4827 f2bc 2737 6abd 1611 443d 6ac5 61bd
000002e0: 5c7d 15bd cf35 c6bd 88e0 c53c 2b36 b4bd
000002f0: d075 5dbc dac7 4b3d 97c4 79bd 029c 463d
00000300: 43a9 97bd b00a 54bd e58d a5bd 9b48 b03d
00000310: 1036 10bd ad41 963d e327 a8bd 705f cbbd
00000320: e6fd 0c3d dc78 14bd 22cf 373d 12ba 95bd
00000330: 1555 a7bd 6896 893c 755a 8dbd f650 96bd
00000340: 7007 6dbd 8a4e 3e3d 8756 bf3d a060 a1bb
00000350: e0d3 b6bb 3bb9 9d3d 81a5 bb3d df67 b83d
00000360: e08a 52bd 70aa 3c3c e8e4 68bc c01c c0bc
00000370: 601d b1bc 6072 7e3b b038 b8bb 00c4 babb
00000380: c218 91bd f75c aa3d fb4e 96bd 1d8c 933d
00000390: 0c4d b5bc 3ecd 7e3d 2458 e43c ea82 a3bd
000003a0: 0eab a7bd b858 9cbc 63a6 9abd b77b b7bd
000003b0: e2ca 693d 2681 06bd 9908 9b3d 17a5 3dbd
000003c0: 18bb 0abc 8c81 b4bc 3e19 4f3d 71ee 863d
000003d0: e011 b53b b6ac 5c3d f425 ba3c abc3 a23d
000003e0: c2c1 6c3d 50a8 093c d983 8b3d 1809 c3bd
000003f0: 298f c73d d3cc 3abd 3507 b6bd d78f b63d
-0.08050726 0.03404116 -0.024185695 0.01977992 0.01845634 0.08770097 -0.092908956 -0.057180334
-0.021733537 0.05241195 -0.0364538 -0.042365875 0.003959611 -0.054144084 -0.03594271 -0.004512593
0.08110168 -0.06381762 0.04613959 -0.040072836 0.016919278 -0.021791652 -0.078313455 -0.08178469
-0.020297334 -0.0549785 -0.010445535 -0.08739493 -0.062351335 0.019996345 -0.008983158 -0.08362236
0.014041141 0.002573669 -0.09088182 0.06130833 0.029040806 -0.026335679 -0.09078181 -0.0989844
0.013514496 -0.058436524 -0.008180976 0.0594152 -0.06486455 -0.06948428 -0.06098553 0.066979
0.035034604 0.099100865 0.07175059 0.06791928 -0.09046574 0.0474867 0.09294257 0.0017187819
0.07367282 -0.007525705 0.06767068 -0.029635683 -0.059027802 -0.026966944 0.0051171333 -0.070791975
-0.053370036 0.028806694 0.009547412 -0.08828836 -0.08893975 -0.097640924 0.081620105 -0.050258517
-0.04728779 0.047023676 0.026672907 0.07413448 -0.07549876 -0.049325954 0.046898566 0.06023974
0.050490446 0.01794456 -0.02181305 -0.061586786 0.049163066 -0.0114884 -0.06676159 -0.0019924864
0.06602598 -0.06136174 -0.049282756 0.06557197 0.0079501495 0.019374847 0.017851457 0.031544797
0.06565089 -0.016248658 0.045426972 -0.037593808 -0.06860942 0.05451984 0.090460934 -0.010384142
-0.06036781 0.047359414 -0.05485771 -0.07088584 -0.08650483 -0.09042789 -0.061117448 0.07196028
-0.04606242 -0.029861428 -0.06682891 -0.09326213 -0.017122924 0.009364769 0.08832257 0.04146395
-0.061942935 -0.0073431134 0.056130923 0.081696294 -0.058821272 -0.074839115 0.09684446 -0.099851124
-0.053716052 0.05831588 0.000998877 -0.098760985 -0.0682597 -0.005540766 -0.040907312 0.07855902
0.0054555535 0.09682172 0.015066162 -0.009353474 0.037321605 -0.06687043 -0.05029867 -0.06194775
0.044045992 0.042415775 0.038662292 0.009644188 0.012867734 -0.08191359 0.011334956 0.023731485
0.026010223 -0.020115077 0.07489172 0.0072640628 -0.07429449 0.087613754 0.07619723 0.039728828
0.06759191 -0.085904896 0.013277389 -0.061780717 0.079087324 0.091452725 0.062244184 0.014007255
-0.09753348 -0.05650414 0.098168306 0.033983476 -0.020104304 -0.02406367 0.06616814 0.008995853
0.026189871 -0.0961798 -0.09767723 -0.05088203 -0.029559746 -0.057181504 0.047867857 -0.05511991
-0.036496505 -0.09678232 0.024154916 -0.08799394 -0.013516858 0.04975114 -0.0609785 0.048488624
-0.07405331 -0.051768005 -0.08083705 0.086075984 -0.035207808 0.073367454 -0.08210733 -0.09930313
0.034421824 -0.036248073 0.04487527 -0.07310881 -0.08170525 0.016795352 -0.06902019 -0.07339661
-0.05786842 0.04646162 0.09342676 -0.0049248487 -0.0055794567 0.077013455 0.09162427 0.09004187
-0.051401973 0.011515245 -0.014214732 -0.023451209 -0.021620452 0.0038825497 -0.005621992 -0.0056996346
-0.070848 0.08318513 -0.07339283 0.07204459 -0.022131465 0.062207453 0.02787406 -0.07983954
-0.08186923 -0.019085273 -0.07551267 -0.089591436 0.05707825 -0.03283801 0.07569999 -0.04630002
-0.008467458 -0.022034429 0.050561182 0.06588448 0.0055258125 0.053875647 0.022723176 0.07947477
0.05780197 0.008401945 0.06812257 -0.09523219 0.097441025 -0.04560549 -0.088880934 0.08914154

action_value.2.bias f4 [100]
00000000: aedb 90bd c53e a33d 5b52 b1bd f861 cebc
00000010: 68b6 e6bc 58e1 a2bc 787a f3bc c226 5e3d
00000020: b63e 98bd 6dda 63bd 3a80 263d a051 f3bb
00000030: 0007 2cbc 5237 393d b0c5 5e3c 5861 ebbc
00000040: bec9 2a3d 364d 593d 801c ea3b e712 38bd
00000050: c29b c8bd d010 cb3b a0e5 bdbd 3732 7abd
00000060: 91a9 bf3d 605d 49bd 243f ec3c a876 cdbc
00000070: b073 45bd d2b9 653d 4adf 2e3d b55f bbbd
00000080: 404a 54bd 63ca 823d 949f c63c 1855 673c
00000090: 7ba0 a03d a856 243c 3134 a13d ad0d af3d
000000a0: 0cd3 b7bc b282 5a3d 2e21 1a3d 8a35 93bd
000000b0: 9160 c23d e8f4 87bc e2ba 633d e394 863d
000000c0: b7f6 ca3d dd8e b9bd e097 8e3b 08a5 a6bd
000000d0: 9d8f 99bd 9cce d53c 30b9 c0bb c628 8dbd
000000e0: 610c ac3d f1c9 a43d cda9 96bd a499 f03c
000000f0: a0fb 82bd a9a1 823d ba5d 1dbd 541b c5bc
00000100: bd28 9abd 1432 ac3c fdd4 62bd 6038 84bc
00000110: e933 833d 861a 353d 0890 bbbc a366 59bd
00000120: fac6 28bd f544 b93d 1a4d 553d 8c82 c4bc
00000130: d41b ca3c 624e a4bd 8fe2 b6bd fec1 0f3d
00000140: 280e 1cbc c0ad 2ebd 422c 763d 10af 99bd
00000150: 718f b83d aa24 4ebd 68b6 d0bc 8732 cb3d
00000160: c144 963d ac5a a13c a7f6 acbd f166 bc3d
00000170: 1780 25bd 88c7 c63c 4086 2ebd ec70 85bd
00000180: a1cb b53d ba21 093d 1b3c 8e3d 1a12 22bd
-0.070731506 0.07970957 -0.08658286 -0.0251932 -0.02816315 -0.019882843 -0.029721484 0.05423618
-0.07433836 -0.05562823 0.04064963 -0.007425502 -0.010499716 0.045218773 0.013596937 -0.02873294
0.041696303 0.05305215 0.0071445107 -0.0449399 -0.097953334 0.0061970726 -0.09272313 -0.061083045
0.09358514 -0.049161315 0.028838702 -0.025080994 -0.04820603 0.056085415 0.042693414 -0.09149114
-0.051828623 0.063862585 0.024246015 0.014119409 0.07843109 0.010030426 0.07871283 0.0854753
-0.022439502 0.053347297 0.0376293 -0.07187946 0.09491075 -0.016596273 0.055598147 0.06571367
0.09910338 -0.09060452 0.004351601 -0.08136946 -0.07498095 0.026099496 -0.005881451 -0.068925425
0.084007986 0.0804633 -0.07356606 0.029370137 -0.0639565 0.063784905 -0.038419463 -0.024060883
-0.075273015 0.021019973 -0.055378903 -0.016140163 0.064063855 0.044214748 -0.022895828 -0.053076398
-0.041205384 0.09046356 0.052075483 -0.02398803 0.024671473 -0.08022763 -0.08929931 0.035097115
-0.0095248595 -0.04264617 0.0601008 -0.07504094 0.09011734 -0.050327934 -0.025477603 0.09921747
0.073373325 0.019696556 -0.08445483 0.09199322 -0.04040536 0.024265066 -0.0426085 -0.06515679
0.0887673 0.03347943 0.06945058 -0.039568044

action_value.4.weight f4 [2, 100]
00000000: 601b 5dbb f447 11bd 01bf a53d 1ae1 7abd
00000010: c96a 9d3d 73da 52bd b8db d3bc dca7 ed3c
00000020: 00d0 aabd c331 b43d 6a15 2c3d 4a37 1b3d
00000030: be47 9fbd 343c 86bc a209 abbd 0abd 763d
00000040: 4cb5 fa3c c2c0 7a3d 947c f13c 961c 3c3d
00000050: 30f1 4bbc 4592 a9bd a8c8 4d3c f2c2 5f3d
00000060: 828e 7a3d bedc 143d 86cc 1c3d eeb7 4d3d
00000070: ed0d 913d 773c 79bd 803c 7c3c f4e6 9d3c
00000080: 881d debc 11ad a13d 1e62 5c3d 616a b63d
00000090: 788f 94bd b3a1 5abd dec7 3c3d b9a9 bc3d
000000a0: ffd1 843d 37b7 a83d f3cc 95bd 7dc7 5abd
000000b0: 12ef 7c3d c8f9 c8bd d13f b53d e878 62bc
000000c0: 2011 c23c 542c a33c 6fba a93d e0f8 0ebd
000000d0: ff2a c8bd bfb8 b93d 2d06 a33d 80f0 c5bd
000000e0: 604a c43b c3a9 bdbd 1db4 54bd b098 b9bd
000000f0: eb39 9cbd 5758 cc3d 40ac dabc 7171 b13d
00000100: 980b 14bc a0ec 00bd 9edf 88bd 7077 753c
00000110: bdae 8ebd fb22 9d3d 5de9 bebd 80c5 77ba
00000120: 00dc f9ba 7610 403d 6ca9 893c 5a35 143d
00000130: 0276 c9bd 14c9 893c 4734 8d3d ccc7 f5bc
00000140: 46ac 4e3d 8809 a23c 28ef f0bc 98b3 eabc
00000150: 5205 663d c2db 663d 7127 863d 26e2 13bd
00000160: 18e6 bebc 9a7c a2bd 78ea 97bd 00ef 233b
00000170: d858 653c 1c90 14bd 2ad3 10bd 8037 043c
00000180: c063 84bc ca83 103d 76e3 1c3d 40e0 3cbb
00000190: 5c9b 00bd de41 0d3d fa19 4bbd 8974 8a3d
000001a0: 53ae 953d 7cbe 12bd c450 87bd 3a63 02bd
000001b0: bd59 40bd 35ff b8bd f83b a3bc 6864 2a3c
000001c0: bd63 9d3d 36af 8abd 008c 1239 b43e cc3c
000001d0: 9ba8 a9bd a8f5 2cbc 2a5f 07bd e8cb 55bc
000001e0: 7037 2b3c c694 01bd da96 423d ecf8 13bd
000001f0: 53a8 833d 3032 11bc 30d5 e0bb a00c e43b
00000200: de7a 7f3d 785b d5bc 7890 80bc 8afe b7bd
00000210: 708a 0a3c f003 58bd 1452 b8bc 53d2 b7bd
00000220: 4d07 ca3d f5d5 a1bd 60ae 82bd aa4f 13bd
00000230: 99d2 c43d fd34 b63d 4083 9cba 00b9 b5bc
00000240: a909 873d 3d00 5ebd 74eb bcbc ad08 bbbd
00000250: 8813 993c 6e62 023d 37e3 6ebd 6c1f b4bc
00000260: 5086 49bd 7496 84bc c933 aa3d 2a50 1a3d
00000270: 3a85 183d a0b4 cc3c 3a3e 53bd d2c5 373d
00000280: 005f e3bc c3f1 92bd 6acf 14bd 4ae3 043d
00000290: cccf d8bc 4a8e 58bd c582 a2bd a4d4 f03c
000002a0: b08b a63b 9d54 9e3d cb67 9c3d 6c34 913c
000002b0: 3b8e b53d f4f0 973c fe03 6d3d 02de a6bd
000002c0: 9b99 a03d 35d0 88bd ebf9 b63d e702 883d
000002d0: 0344 c13d 65e0 a63d 2d6f 48bd 2961 863d
000002e0: 30cd 8ebb 0018 a5ba f2c1 213d e728 cc3d
000002f0: 2004 d0bc 870c 5cbd d40c 8dbc 20ad c2bc
00000300: f32a 8fbd 0a6d 343d 514b 9f3d 2581 8dbd
00000310: d289 98bd fd39 8c3d 00d0 a9bc 010b c83d
-0.003373824 -0.03546901 0.08093072 -0.06124983 0.07686383 -0.05147786 -0.025861606 0.029010706
-0.08340454 0.08798554 0.04201261 0.037894525 -0.077773556 -0.016386129 -0.08351447 0.060238875
0.030604027 0.061218984 0.029478349 0.0459257 -0.01244764 -0.08279852 0.012560047 0.054629274
0.061171062 0.03634333 0.038280986 0.050224237 0.07082734 -0.06084868 0.015395284 0.019275166
-0.027113691 0.07894338 0.05380451 0.08907009 -0.07253927 -0.053376865 0.046089046 0.092120595
0.06485366 0.082380705 -0.073144816 -0.053412903 0.061751433 -0.09813267 0.08850063 -0.013822772
0.023689806 0.019918598 0.082875125 -0.034905314 -0.09773826 0.09068441 0.07960162 -0.09665012
0.0059903115 -0.09260895 -0.051929582 -0.09062326 -0.076282345 0.09977787 -0.026693463 0.08664215
-0.009035967 -0.031475663 -0.066832766 0.014982089 -0.069669224 0.076726876 -0.09321854 -0.0009451732
-0.0019062757 0.0468907 0.01680442 0.036183693 -0.09836961 0.016819514 0.06894737 -0.030002497
0.05045726 0.019779935 -0.029410914 -0.02865009 0.056157418 0.05636192 0.065504916 -0.036104344
-0.023303077 -0.07933922 -0.07417768 0.0025014281 0.013998233 -0.036270246 -0.03535763 0.008069873
-0.016160846 0.035281934 0.03830286 -0.0028820187 -0.031398162 0.034486644 -0.04958532 0.067605086
0.0730864 -0.03582619 -0.06607202 -0.03183291 -0.04696058 -0.09033052 -0.019926056 0.010399915
0.07685039 -0.067717 0.00013975799 0.024932243 -0.08284112 -0.010556616 -0.03304974 -0.013049103
0.010450229 -0.031636022 0.047507145 -0.036126062 0.0642859 -0.008862063 -0.0068613514 0.006959513
0.062373035 -0.026044592 -0.015693888 -0.08984096 0.008455858 -0.05273813 -0.022500075 -0.08975663
0.09864674 -0.07902137 -0.06380916 -0.035964645 0.09610481 0.088968255 -0.0011940971 -0.022182941
0.065936394 -0.054199446 -0.023061492 -0.09132514 0.018686071 0.03183215 -0.058322158 -0.02198764
-0.049200356 -0.016185023 0.083106585 0.037674107 0.03723643 0.024988472 -0.051573016 0.04486639
-0.02775526 -0.07175019 -0.036330618 0.032443322 -0.026466273 -0.052870072 -0.079350986 0.02939827
0.00508257 0.077309825 0.076369844 0.017725192 0.08865019 0.018547513 0.057865135 -0.081478134
0.07841798 -0.06680337 0.08934387 0.066411786 0.094368 0.081482686 -0.04893415 0.065615006
-0.0043579563 -0.0012595654 0.0394916 0.09968739 -0.025392592 -0.053722885 -0.017218031 -0.023764193
-0.06990614 0.0440493 0.07778037 -0.06909398 -0.07448162 0.06846998 -0.020729065 0.09767724

action_value.4.bias f4 [2]
00000000: 0087 22ba 60f4 ccbc
-0.0006199926 -0.02501887
